<?xml version="1.0"?>
<net name="main_graph" version="11">
	<layers>
		<layer id="0" name="input" type="Parameter" version="opset1">
			<data shape="1,3,?,?" element_type="f32" />
			<output>
				<port id="0" precision="FP32" names="input">
					<dim>1</dim>
					<dim>3</dim>
					<dim>-1</dim>
					<dim>-1</dim>
				</port>
			</output>
		</layer>
		<layer id="1" name="Constant_12380" type="Const" version="opset1">
			<data element_type="i64" shape="2" offset="0" size="16" />
			<rt_info>
				<attribute name="precise" version="0" />
			</rt_info>
			<output>
				<port id="0" precision="I64">
					<dim>2</dim>
				</port>
			</output>
		</layer>
		<layer id="2" name="ShapeOf_14533" type="ShapeOf" version="opset3">
			<data output_type="i64" />
			<input>
				<port id="0" precision="FP32">
					<dim>1</dim>
					<dim>3</dim>
					<dim>-1</dim>
					<dim>-1</dim>
				</port>
			</input>
			<output>
				<port id="1" precision="I64">
					<dim>4</dim>
				</port>
			</output>
		</layer>
		<layer id="3" name="Constant_14534" type="Const" version="opset1">
			<data element_type="i64" shape="1" offset="16" size="8" />
			<rt_info>
				<attribute name="precise" version="0" />
			</rt_info>
			<output>
				<port id="0" precision="I64">
					<dim>1</dim>
				</port>
			</output>
		</layer>
		<layer id="4" name="Constant_14535" type="Const" version="opset1">
			<data element_type="i64" shape="" offset="24" size="8" />
			<rt_info>
				<attribute name="precise" version="0" />
			</rt_info>
			<output>
				<port id="0" precision="I64" />
			</output>
		</layer>
		<layer id="5" name="Gather_14536" type="Gather" version="opset8">
			<data batch_dims="0" />
			<input>
				<port id="0" precision="I64">
					<dim>4</dim>
				</port>
				<port id="1" precision="I64">
					<dim>1</dim>
				</port>
				<port id="2" precision="I64" />
			</input>
			<output>
				<port id="3" precision="I64" names="/Gather_2_output_0">
					<dim>1</dim>
				</port>
			</output>
		</layer>
		<layer id="6" name="Constant_12144" type="Const" version="opset1">
			<data element_type="i64" shape="1" offset="16" size="8" />
			<rt_info>
				<attribute name="precise" version="0" />
			</rt_info>
			<output>
				<port id="0" precision="I64">
					<dim>1</dim>
				</port>
			</output>
		</layer>
		<layer id="7" name="/Div" type="Divide" version="opset1">
			<data auto_broadcast="numpy" m_pythondiv="true" />
			<input>
				<port id="0" precision="I64">
					<dim>1</dim>
				</port>
				<port id="1" precision="I64">
					<dim>1</dim>
				</port>
			</input>
			<output>
				<port id="2" precision="I64" names="/Cast_1_output_0,/Cast_output_0,/Div_output_0,/Unsqueeze_2_output_0,/Unsqueeze_6_output_0">
					<dim>1</dim>
				</port>
			</output>
		</layer>
		<layer id="8" name="/Constant_7" type="Const" version="opset1">
			<data element_type="i64" shape="1" offset="16" size="8" />
			<rt_info>
				<attribute name="precise" version="0" />
			</rt_info>
			<output>
				<port id="0" precision="I64" names="/Constant_7_output_0">
					<dim>1</dim>
				</port>
			</output>
		</layer>
		<layer id="9" name="Constant_14538" type="Const" version="opset1">
			<data element_type="i64" shape="1" offset="32" size="8" />
			<rt_info>
				<attribute name="precise" version="0" />
			</rt_info>
			<output>
				<port id="0" precision="I64">
					<dim>1</dim>
				</port>
			</output>
		</layer>
		<layer id="10" name="Constant_14539" type="Const" version="opset1">
			<data element_type="i64" shape="" offset="24" size="8" />
			<rt_info>
				<attribute name="precise" version="0" />
			</rt_info>
			<output>
				<port id="0" precision="I64" />
			</output>
		</layer>
		<layer id="11" name="Gather_14540" type="Gather" version="opset8">
			<data batch_dims="0" />
			<input>
				<port id="0" precision="I64">
					<dim>4</dim>
				</port>
				<port id="1" precision="I64">
					<dim>1</dim>
				</port>
				<port id="2" precision="I64" />
			</input>
			<output>
				<port id="3" precision="I64" names="/Gather_3_output_0">
					<dim>1</dim>
				</port>
			</output>
		</layer>
		<layer id="12" name="Constant_12147" type="Const" version="opset1">
			<data element_type="i64" shape="1" offset="16" size="8" />
			<rt_info>
				<attribute name="precise" version="0" />
			</rt_info>
			<output>
				<port id="0" precision="I64">
					<dim>1</dim>
				</port>
			</output>
		</layer>
		<layer id="13" name="/Div_1" type="Divide" version="opset1">
			<data auto_broadcast="numpy" m_pythondiv="true" />
			<input>
				<port id="0" precision="I64">
					<dim>1</dim>
				</port>
				<port id="1" precision="I64">
					<dim>1</dim>
				</port>
			</input>
			<output>
				<port id="2" precision="I64" names="/Cast_2_output_0,/Cast_3_output_0,/Div_1_output_0,/Unsqueeze_3_output_0,/Unsqueeze_7_output_0">
					<dim>1</dim>
				</port>
			</output>
		</layer>
		<layer id="14" name="/Constant_8" type="Const" version="opset1">
			<data element_type="i64" shape="1" offset="16" size="8" />
			<rt_info>
				<attribute name="precise" version="0" />
			</rt_info>
			<output>
				<port id="0" precision="I64" names="/Constant_8_output_0">
					<dim>1</dim>
				</port>
			</output>
		</layer>
		<layer id="15" name="/Concat" type="Concat" version="opset1">
			<data axis="0" />
			<input>
				<port id="0" precision="I64">
					<dim>2</dim>
				</port>
				<port id="1" precision="I64">
					<dim>1</dim>
				</port>
				<port id="2" precision="I64">
					<dim>1</dim>
				</port>
				<port id="3" precision="I64">
					<dim>1</dim>
				</port>
				<port id="4" precision="I64">
					<dim>1</dim>
				</port>
			</input>
			<output>
				<port id="5" precision="I64">
					<dim>6</dim>
				</port>
			</output>
		</layer>
		<layer id="16" name="/Reshape" type="Reshape" version="opset1">
			<data special_zero="true" />
			<input>
				<port id="0" precision="FP32">
					<dim>1</dim>
					<dim>3</dim>
					<dim>-1</dim>
					<dim>-1</dim>
				</port>
				<port id="1" precision="I64">
					<dim>6</dim>
				</port>
			</input>
			<output>
				<port id="2" precision="FP32" names="/Reshape_output_0">
					<dim>1</dim>
					<dim>3</dim>
					<dim>-1</dim>
					<dim>2</dim>
					<dim>-1</dim>
					<dim>2</dim>
				</port>
			</output>
		</layer>
		<layer id="17" name="Constant_834" type="Const" version="opset1">
			<data element_type="i64" shape="6" offset="40" size="48" />
			<output>
				<port id="0" precision="I64">
					<dim>6</dim>
				</port>
			</output>
		</layer>
		<layer id="18" name="/Transpose" type="Transpose" version="opset1">
			<input>
				<port id="0" precision="FP32">
					<dim>1</dim>
					<dim>3</dim>
					<dim>-1</dim>
					<dim>2</dim>
					<dim>-1</dim>
					<dim>2</dim>
				</port>
				<port id="1" precision="I64">
					<dim>6</dim>
				</port>
			</input>
			<output>
				<port id="2" precision="FP32" names="/Transpose_output_0">
					<dim>1</dim>
					<dim>3</dim>
					<dim>2</dim>
					<dim>2</dim>
					<dim>-1</dim>
					<dim>-1</dim>
				</port>
			</output>
		</layer>
		<layer id="19" name="Constant_14542" type="Const" version="opset1">
			<data element_type="i64" shape="1" offset="24" size="8" />
			<rt_info>
				<attribute name="precise" version="0" />
			</rt_info>
			<output>
				<port id="0" precision="I64">
					<dim>1</dim>
				</port>
			</output>
		</layer>
		<layer id="20" name="Constant_14543" type="Const" version="opset1">
			<data element_type="i64" shape="" offset="24" size="8" />
			<rt_info>
				<attribute name="precise" version="0" />
			</rt_info>
			<output>
				<port id="0" precision="I64" />
			</output>
		</layer>
		<layer id="21" name="Gather_14544" type="Gather" version="opset8">
			<data batch_dims="0" />
			<input>
				<port id="0" precision="I64">
					<dim>4</dim>
				</port>
				<port id="1" precision="I64">
					<dim>1</dim>
				</port>
				<port id="2" precision="I64" />
			</input>
			<output>
				<port id="3" precision="I64" names="/Gather_output_0,/Unsqueeze_4_output_0,/Unsqueeze_output_0">
					<dim>1</dim>
				</port>
			</output>
		</layer>
		<layer id="22" name="Constant_14546" type="Const" version="opset1">
			<data element_type="i64" shape="1" offset="88" size="8" />
			<rt_info>
				<attribute name="precise" version="0" />
			</rt_info>
			<output>
				<port id="0" precision="I64">
					<dim>1</dim>
				</port>
			</output>
		</layer>
		<layer id="23" name="Constant_14547" type="Const" version="opset1">
			<data element_type="i64" shape="" offset="24" size="8" />
			<rt_info>
				<attribute name="precise" version="0" />
			</rt_info>
			<output>
				<port id="0" precision="I64" />
			</output>
		</layer>
		<layer id="24" name="Gather_14548" type="Gather" version="opset8">
			<data batch_dims="0" />
			<input>
				<port id="0" precision="I64">
					<dim>4</dim>
				</port>
				<port id="1" precision="I64">
					<dim>1</dim>
				</port>
				<port id="2" precision="I64" />
			</input>
			<output>
				<port id="3" precision="I64" names="/Gather_1_output_0,/Unsqueeze_1_output_0">
					<dim>1</dim>
				</port>
			</output>
		</layer>
		<layer id="25" name="Constant_12150" type="Const" version="opset1">
			<data element_type="i64" shape="1" offset="96" size="8" />
			<rt_info>
				<attribute name="precise" version="0" />
			</rt_info>
			<output>
				<port id="0" precision="I64">
					<dim>1</dim>
				</port>
			</output>
		</layer>
		<layer id="26" name="/Mul" type="Multiply" version="opset1">
			<data auto_broadcast="numpy" />
			<input>
				<port id="0" precision="I64">
					<dim>1</dim>
				</port>
				<port id="1" precision="I64">
					<dim>1</dim>
				</port>
			</input>
			<output>
				<port id="2" precision="I64" names="/Mul_output_0,/Unsqueeze_5_output_0">
					<dim>1</dim>
				</port>
			</output>
		</layer>
		<layer id="27" name="/Concat_1" type="Concat" version="opset1">
			<data axis="0" />
			<input>
				<port id="0" precision="I64">
					<dim>1</dim>
				</port>
				<port id="1" precision="I64">
					<dim>1</dim>
				</port>
				<port id="2" precision="I64">
					<dim>1</dim>
				</port>
				<port id="3" precision="I64">
					<dim>1</dim>
				</port>
			</input>
			<output>
				<port id="4" precision="I64" names="/Concat_1_output_0">
					<dim>4</dim>
				</port>
			</output>
		</layer>
		<layer id="28" name="/Reshape_1" type="Reshape" version="opset1">
			<data special_zero="true" />
			<input>
				<port id="0" precision="FP32">
					<dim>1</dim>
					<dim>3</dim>
					<dim>2</dim>
					<dim>2</dim>
					<dim>-1</dim>
					<dim>-1</dim>
				</port>
				<port id="1" precision="I64">
					<dim>4</dim>
				</port>
			</input>
			<output>
				<port id="2" precision="FP32" names="/Reshape_1_output_0">
					<dim>1</dim>
					<dim>12</dim>
					<dim>-1</dim>
					<dim>-1</dim>
				</port>
			</output>
		</layer>
		<layer id="29" name="conv_first.weight_compressed" type="Const" version="opset1">
			<data element_type="f16" shape="64, 12, 3, 3" offset="104" size="13824" />
			<output>
				<port id="0" precision="FP16" names="conv_first.weight">
					<dim>64</dim>
					<dim>12</dim>
					<dim>3</dim>
					<dim>3</dim>
				</port>
			</output>
		</layer>
		<layer id="30" name="conv_first.weight" type="Convert" version="opset1">
			<data destination_type="f32" />
			<rt_info>
				<attribute name="decompression" version="0" />
			</rt_info>
			<input>
				<port id="0" precision="FP16">
					<dim>64</dim>
					<dim>12</dim>
					<dim>3</dim>
					<dim>3</dim>
				</port>
			</input>
			<output>
				<port id="1" precision="FP32">
					<dim>64</dim>
					<dim>12</dim>
					<dim>3</dim>
					<dim>3</dim>
				</port>
			</output>
		</layer>
		<layer id="31" name="/conv_first/Conv/WithoutBiases" type="Convolution" version="opset1">
			<data strides="1, 1" dilations="1, 1" pads_begin="1, 1" pads_end="1, 1" auto_pad="explicit" />
			<input>
				<port id="0" precision="FP32">
					<dim>1</dim>
					<dim>12</dim>
					<dim>-1</dim>
					<dim>-1</dim>
				</port>
				<port id="1" precision="FP32">
					<dim>64</dim>
					<dim>12</dim>
					<dim>3</dim>
					<dim>3</dim>
				</port>
			</input>
			<output>
				<port id="2" precision="FP32">
					<dim>1</dim>
					<dim>64</dim>
					<dim>-1</dim>
					<dim>-1</dim>
				</port>
			</output>
		</layer>
		<layer id="32" name="Reshape_949_compressed" type="Const" version="opset1">
			<data element_type="f16" shape="1, 64, 1, 1" offset="13928" size="128" />
			<output>
				<port id="0" precision="FP16">
					<dim>1</dim>
					<dim>64</dim>
					<dim>1</dim>
					<dim>1</dim>
				</port>
			</output>
		</layer>
		<layer id="33" name="Reshape_949" type="Convert" version="opset1">
			<data destination_type="f32" />
			<rt_info>
				<attribute name="decompression" version="0" />
			</rt_info>
			<input>
				<port id="0" precision="FP16">
					<dim>1</dim>
					<dim>64</dim>
					<dim>1</dim>
					<dim>1</dim>
				</port>
			</input>
			<output>
				<port id="1" precision="FP32">
					<dim>1</dim>
					<dim>64</dim>
					<dim>1</dim>
					<dim>1</dim>
				</port>
			</output>
		</layer>
		<layer id="34" name="/conv_first/Conv" type="Add" version="opset1">
			<data auto_broadcast="numpy" />
			<input>
				<port id="0" precision="FP32">
					<dim>1</dim>
					<dim>64</dim>
					<dim>-1</dim>
					<dim>-1</dim>
				</port>
				<port id="1" precision="FP32">
					<dim>1</dim>
					<dim>64</dim>
					<dim>1</dim>
					<dim>1</dim>
				</port>
			</input>
			<output>
				<port id="2" precision="FP32" names="/conv_first/Conv_output_0">
					<dim>1</dim>
					<dim>64</dim>
					<dim>-1</dim>
					<dim>-1</dim>
				</port>
			</output>
		</layer>
		<layer id="35" name="body.0.rdb1.conv1.weight_compressed" type="Const" version="opset1">
			<data element_type="f16" shape="32, 64, 3, 3" offset="14056" size="36864" />
			<output>
				<port id="0" precision="FP16" names="body.0.rdb1.conv1.weight">
					<dim>32</dim>
					<dim>64</dim>
					<dim>3</dim>
					<dim>3</dim>
				</port>
			</output>
		</layer>
		<layer id="36" name="body.0.rdb1.conv1.weight" type="Convert" version="opset1">
			<data destination_type="f32" />
			<rt_info>
				<attribute name="decompression" version="0" />
			</rt_info>
			<input>
				<port id="0" precision="FP16">
					<dim>32</dim>
					<dim>64</dim>
					<dim>3</dim>
					<dim>3</dim>
				</port>
			</input>
			<output>
				<port id="1" precision="FP32">
					<dim>32</dim>
					<dim>64</dim>
					<dim>3</dim>
					<dim>3</dim>
				</port>
			</output>
		</layer>
		<layer id="37" name="/body/body.0/rdb1/conv1/Conv/WithoutBiases" type="Convolution" version="opset1">
			<data strides="1, 1" dilations="1, 1" pads_begin="1, 1" pads_end="1, 1" auto_pad="explicit" />
			<input>
				<port id="0" precision="FP32">
					<dim>1</dim>
					<dim>64</dim>
					<dim>-1</dim>
					<dim>-1</dim>
				</port>
				<port id="1" precision="FP32">
					<dim>32</dim>
					<dim>64</dim>
					<dim>3</dim>
					<dim>3</dim>
				</port>
			</input>
			<output>
				<port id="2" precision="FP32">
					<dim>1</dim>
					<dim>32</dim>
					<dim>-1</dim>
					<dim>-1</dim>
				</port>
			</output>
		</layer>
		<layer id="38" name="Reshape_962_compressed" type="Const" version="opset1">
			<data element_type="f16" shape="1, 32, 1, 1" offset="50920" size="64" />
			<output>
				<port id="0" precision="FP16">
					<dim>1</dim>
					<dim>32</dim>
					<dim>1</dim>
					<dim>1</dim>
				</port>
			</output>
		</layer>
		<layer id="39" name="Reshape_962" type="Convert" version="opset1">
			<data destination_type="f32" />
			<rt_info>
				<attribute name="decompression" version="0" />
			</rt_info>
			<input>
				<port id="0" precision="FP16">
					<dim>1</dim>
					<dim>32</dim>
					<dim>1</dim>
					<dim>1</dim>
				</port>
			</input>
			<output>
				<port id="1" precision="FP32">
					<dim>1</dim>
					<dim>32</dim>
					<dim>1</dim>
					<dim>1</dim>
				</port>
			</output>
		</layer>
		<layer id="40" name="/body/body.0/rdb1/conv1/Conv" type="Add" version="opset1">
			<data auto_broadcast="numpy" />
			<input>
				<port id="0" precision="FP32">
					<dim>1</dim>
					<dim>32</dim>
					<dim>-1</dim>
					<dim>-1</dim>
				</port>
				<port id="1" precision="FP32">
					<dim>1</dim>
					<dim>32</dim>
					<dim>1</dim>
					<dim>1</dim>
				</port>
			</input>
			<output>
				<port id="2" precision="FP32" names="/body/body.0/rdb1/conv1/Conv_output_0">
					<dim>1</dim>
					<dim>32</dim>
					<dim>-1</dim>
					<dim>-1</dim>
				</port>
			</output>
		</layer>
		<layer id="41" name="Constant_964_compressed" type="Const" version="opset1">
			<data element_type="f16" shape="1" offset="50984" size="2" />
			<output>
				<port id="0" precision="FP16">
					<dim>1</dim>
				</port>
			</output>
		</layer>
		<layer id="42" name="Constant_964" type="Convert" version="opset1">
			<data destination_type="f32" />
			<rt_info>
				<attribute name="decompression" version="0" />
			</rt_info>
			<input>
				<port id="0" precision="FP16">
					<dim>1</dim>
				</port>
			</input>
			<output>
				<port id="1" precision="FP32">
					<dim>1</dim>
				</port>
			</output>
		</layer>
		<layer id="43" name="/body/body.0/rdb1/lrelu/LeakyRelu" type="PReLU" version="opset1">
			<input>
				<port id="0" precision="FP32">
					<dim>1</dim>
					<dim>32</dim>
					<dim>-1</dim>
					<dim>-1</dim>
				</port>
				<port id="1" precision="FP32">
					<dim>1</dim>
				</port>
			</input>
			<output>
				<port id="2" precision="FP32" names="/body/body.0/rdb1/lrelu/LeakyRelu_output_0">
					<dim>1</dim>
					<dim>32</dim>
					<dim>-1</dim>
					<dim>-1</dim>
				</port>
			</output>
		</layer>
		<layer id="44" name="/body/body.0/rdb1/Concat" type="Concat" version="opset1">
			<data axis="1" />
			<input>
				<port id="0" precision="FP32">
					<dim>1</dim>
					<dim>64</dim>
					<dim>-1</dim>
					<dim>-1</dim>
				</port>
				<port id="1" precision="FP32">
					<dim>1</dim>
					<dim>32</dim>
					<dim>-1</dim>
					<dim>-1</dim>
				</port>
			</input>
			<output>
				<port id="2" precision="FP32" names="/body/body.0/rdb1/Concat_output_0">
					<dim>1</dim>
					<dim>96</dim>
					<dim>-1</dim>
					<dim>-1</dim>
				</port>
			</output>
		</layer>
		<layer id="45" name="body.0.rdb1.conv2.weight_compressed" type="Const" version="opset1">
			<data element_type="f16" shape="32, 96, 3, 3" offset="50986" size="55296" />
			<output>
				<port id="0" precision="FP16" names="body.0.rdb1.conv2.weight">
					<dim>32</dim>
					<dim>96</dim>
					<dim>3</dim>
					<dim>3</dim>
				</port>
			</output>
		</layer>
		<layer id="46" name="body.0.rdb1.conv2.weight" type="Convert" version="opset1">
			<data destination_type="f32" />
			<rt_info>
				<attribute name="decompression" version="0" />
			</rt_info>
			<input>
				<port id="0" precision="FP16">
					<dim>32</dim>
					<dim>96</dim>
					<dim>3</dim>
					<dim>3</dim>
				</port>
			</input>
			<output>
				<port id="1" precision="FP32">
					<dim>32</dim>
					<dim>96</dim>
					<dim>3</dim>
					<dim>3</dim>
				</port>
			</output>
		</layer>
		<layer id="47" name="/body/body.0/rdb1/conv2/Conv/WithoutBiases" type="Convolution" version="opset1">
			<data strides="1, 1" dilations="1, 1" pads_begin="1, 1" pads_end="1, 1" auto_pad="explicit" />
			<input>
				<port id="0" precision="FP32">
					<dim>1</dim>
					<dim>96</dim>
					<dim>-1</dim>
					<dim>-1</dim>
				</port>
				<port id="1" precision="FP32">
					<dim>32</dim>
					<dim>96</dim>
					<dim>3</dim>
					<dim>3</dim>
				</port>
			</input>
			<output>
				<port id="2" precision="FP32">
					<dim>1</dim>
					<dim>32</dim>
					<dim>-1</dim>
					<dim>-1</dim>
				</port>
			</output>
		</layer>
		<layer id="48" name="Reshape_978_compressed" type="Const" version="opset1">
			<data element_type="f16" shape="1, 32, 1, 1" offset="106282" size="64" />
			<output>
				<port id="0" precision="FP16">
					<dim>1</dim>
					<dim>32</dim>
					<dim>1</dim>
					<dim>1</dim>
				</port>
			</output>
		</layer>
		<layer id="49" name="Reshape_978" type="Convert" version="opset1">
			<data destination_type="f32" />
			<rt_info>
				<attribute name="decompression" version="0" />
			</rt_info>
			<input>
				<port id="0" precision="FP16">
					<dim>1</dim>
					<dim>32</dim>
					<dim>1</dim>
					<dim>1</dim>
				</port>
			</input>
			<output>
				<port id="1" precision="FP32">
					<dim>1</dim>
					<dim>32</dim>
					<dim>1</dim>
					<dim>1</dim>
				</port>
			</output>
		</layer>
		<layer id="50" name="/body/body.0/rdb1/conv2/Conv" type="Add" version="opset1">
			<data auto_broadcast="numpy" />
			<input>
				<port id="0" precision="FP32">
					<dim>1</dim>
					<dim>32</dim>
					<dim>-1</dim>
					<dim>-1</dim>
				</port>
				<port id="1" precision="FP32">
					<dim>1</dim>
					<dim>32</dim>
					<dim>1</dim>
					<dim>1</dim>
				</port>
			</input>
			<output>
				<port id="2" precision="FP32" names="/body/body.0/rdb1/conv2/Conv_output_0">
					<dim>1</dim>
					<dim>32</dim>
					<dim>-1</dim>
					<dim>-1</dim>
				</port>
			</output>
		</layer>
		<layer id="51" name="Constant_980_compressed" type="Const" version="opset1">
			<data element_type="f16" shape="1" offset="50984" size="2" />
			<output>
				<port id="0" precision="FP16">
					<dim>1</dim>
				</port>
			</output>
		</layer>
		<layer id="52" name="Constant_980" type="Convert" version="opset1">
			<data destination_type="f32" />
			<rt_info>
				<attribute name="decompression" version="0" />
			</rt_info>
			<input>
				<port id="0" precision="FP16">
					<dim>1</dim>
				</port>
			</input>
			<output>
				<port id="1" precision="FP32">
					<dim>1</dim>
				</port>
			</output>
		</layer>
		<layer id="53" name="/body/body.0/rdb1/lrelu_1/LeakyRelu" type="PReLU" version="opset1">
			<input>
				<port id="0" precision="FP32">
					<dim>1</dim>
					<dim>32</dim>
					<dim>-1</dim>
					<dim>-1</dim>
				</port>
				<port id="1" precision="FP32">
					<dim>1</dim>
				</port>
			</input>
			<output>
				<port id="2" precision="FP32" names="/body/body.0/rdb1/lrelu_1/LeakyRelu_output_0">
					<dim>1</dim>
					<dim>32</dim>
					<dim>-1</dim>
					<dim>-1</dim>
				</port>
			</output>
		</layer>
		<layer id="54" name="/body/body.0/rdb1/Concat_1" type="Concat" version="opset1">
			<data axis="1" />
			<input>
				<port id="0" precision="FP32">
					<dim>1</dim>
					<dim>64</dim>
					<dim>-1</dim>
					<dim>-1</dim>
				</port>
				<port id="1" precision="FP32">
					<dim>1</dim>
					<dim>32</dim>
					<dim>-1</dim>
					<dim>-1</dim>
				</port>
				<port id="2" precision="FP32">
					<dim>1</dim>
					<dim>32</dim>
					<dim>-1</dim>
					<dim>-1</dim>
				</port>
			</input>
			<output>
				<port id="3" precision="FP32" names="/body/body.0/rdb1/Concat_1_output_0">
					<dim>1</dim>
					<dim>128</dim>
					<dim>-1</dim>
					<dim>-1</dim>
				</port>
			</output>
		</layer>
		<layer id="55" name="body.0.rdb1.conv3.weight_compressed" type="Const" version="opset1">
			<data element_type="f16" shape="32, 128, 3, 3" offset="106346" size="73728" />
			<output>
				<port id="0" precision="FP16" names="body.0.rdb1.conv3.weight">
					<dim>32</dim>
					<dim>128</dim>
					<dim>3</dim>
					<dim>3</dim>
				</port>
			</output>
		</layer>
		<layer id="56" name="body.0.rdb1.conv3.weight" type="Convert" version="opset1">
			<data destination_type="f32" />
			<rt_info>
				<attribute name="decompression" version="0" />
			</rt_info>
			<input>
				<port id="0" precision="FP16">
					<dim>32</dim>
					<dim>128</dim>
					<dim>3</dim>
					<dim>3</dim>
				</port>
			</input>
			<output>
				<port id="1" precision="FP32">
					<dim>32</dim>
					<dim>128</dim>
					<dim>3</dim>
					<dim>3</dim>
				</port>
			</output>
		</layer>
		<layer id="57" name="/body/body.0/rdb1/conv3/Conv/WithoutBiases" type="Convolution" version="opset1">
			<data strides="1, 1" dilations="1, 1" pads_begin="1, 1" pads_end="1, 1" auto_pad="explicit" />
			<input>
				<port id="0" precision="FP32">
					<dim>1</dim>
					<dim>128</dim>
					<dim>-1</dim>
					<dim>-1</dim>
				</port>
				<port id="1" precision="FP32">
					<dim>32</dim>
					<dim>128</dim>
					<dim>3</dim>
					<dim>3</dim>
				</port>
			</input>
			<output>
				<port id="2" precision="FP32">
					<dim>1</dim>
					<dim>32</dim>
					<dim>-1</dim>
					<dim>-1</dim>
				</port>
			</output>
		</layer>
		<layer id="58" name="Reshape_994_compressed" type="Const" version="opset1">
			<data element_type="f16" shape="1, 32, 1, 1" offset="180074" size="64" />
			<output>
				<port id="0" precision="FP16">
					<dim>1</dim>
					<dim>32</dim>
					<dim>1</dim>
					<dim>1</dim>
				</port>
			</output>
		</layer>
		<layer id="59" name="Reshape_994" type="Convert" version="opset1">
			<data destination_type="f32" />
			<rt_info>
				<attribute name="decompression" version="0" />
			</rt_info>
			<input>
				<port id="0" precision="FP16">
					<dim>1</dim>
					<dim>32</dim>
					<dim>1</dim>
					<dim>1</dim>
				</port>
			</input>
			<output>
				<port id="1" precision="FP32">
					<dim>1</dim>
					<dim>32</dim>
					<dim>1</dim>
					<dim>1</dim>
				</port>
			</output>
		</layer>
		<layer id="60" name="/body/body.0/rdb1/conv3/Conv" type="Add" version="opset1">
			<data auto_broadcast="numpy" />
			<input>
				<port id="0" precision="FP32">
					<dim>1</dim>
					<dim>32</dim>
					<dim>-1</dim>
					<dim>-1</dim>
				</port>
				<port id="1" precision="FP32">
					<dim>1</dim>
					<dim>32</dim>
					<dim>1</dim>
					<dim>1</dim>
				</port>
			</input>
			<output>
				<port id="2" precision="FP32" names="/body/body.0/rdb1/conv3/Conv_output_0">
					<dim>1</dim>
					<dim>32</dim>
					<dim>-1</dim>
					<dim>-1</dim>
				</port>
			</output>
		</layer>
		<layer id="61" name="Constant_996_compressed" type="Const" version="opset1">
			<data element_type="f16" shape="1" offset="50984" size="2" />
			<output>
				<port id="0" precision="FP16">
					<dim>1</dim>
				</port>
			</output>
		</layer>
		<layer id="62" name="Constant_996" type="Convert" version="opset1">
			<data destination_type="f32" />
			<rt_info>
				<attribute name="decompression" version="0" />
			</rt_info>
			<input>
				<port id="0" precision="FP16">
					<dim>1</dim>
				</port>
			</input>
			<output>
				<port id="1" precision="FP32">
					<dim>1</dim>
				</port>
			</output>
		</layer>
		<layer id="63" name="/body/body.0/rdb1/lrelu_2/LeakyRelu" type="PReLU" version="opset1">
			<input>
				<port id="0" precision="FP32">
					<dim>1</dim>
					<dim>32</dim>
					<dim>-1</dim>
					<dim>-1</dim>
				</port>
				<port id="1" precision="FP32">
					<dim>1</dim>
				</port>
			</input>
			<output>
				<port id="2" precision="FP32" names="/body/body.0/rdb1/lrelu_2/LeakyRelu_output_0">
					<dim>1</dim>
					<dim>32</dim>
					<dim>-1</dim>
					<dim>-1</dim>
				</port>
			</output>
		</layer>
		<layer id="64" name="/body/body.0/rdb1/Concat_2" type="Concat" version="opset1">
			<data axis="1" />
			<input>
				<port id="0" precision="FP32">
					<dim>1</dim>
					<dim>64</dim>
					<dim>-1</dim>
					<dim>-1</dim>
				</port>
				<port id="1" precision="FP32">
					<dim>1</dim>
					<dim>32</dim>
					<dim>-1</dim>
					<dim>-1</dim>
				</port>
				<port id="2" precision="FP32">
					<dim>1</dim>
					<dim>32</dim>
					<dim>-1</dim>
					<dim>-1</dim>
				</port>
				<port id="3" precision="FP32">
					<dim>1</dim>
					<dim>32</dim>
					<dim>-1</dim>
					<dim>-1</dim>
				</port>
			</input>
			<output>
				<port id="4" precision="FP32" names="/body/body.0/rdb1/Concat_2_output_0">
					<dim>1</dim>
					<dim>160</dim>
					<dim>-1</dim>
					<dim>-1</dim>
				</port>
			</output>
		</layer>
		<layer id="65" name="body.0.rdb1.conv4.weight_compressed" type="Const" version="opset1">
			<data element_type="f16" shape="32, 160, 3, 3" offset="180138" size="92160" />
			<output>
				<port id="0" precision="FP16" names="body.0.rdb1.conv4.weight">
					<dim>32</dim>
					<dim>160</dim>
					<dim>3</dim>
					<dim>3</dim>
				</port>
			</output>
		</layer>
		<layer id="66" name="body.0.rdb1.conv4.weight" type="Convert" version="opset1">
			<data destination_type="f32" />
			<rt_info>
				<attribute name="decompression" version="0" />
			</rt_info>
			<input>
				<port id="0" precision="FP16">
					<dim>32</dim>
					<dim>160</dim>
					<dim>3</dim>
					<dim>3</dim>
				</port>
			</input>
			<output>
				<port id="1" precision="FP32">
					<dim>32</dim>
					<dim>160</dim>
					<dim>3</dim>
					<dim>3</dim>
				</port>
			</output>
		</layer>
		<layer id="67" name="/body/body.0/rdb1/conv4/Conv/WithoutBiases" type="Convolution" version="opset1">
			<data strides="1, 1" dilations="1, 1" pads_begin="1, 1" pads_end="1, 1" auto_pad="explicit" />
			<input>
				<port id="0" precision="FP32">
					<dim>1</dim>
					<dim>160</dim>
					<dim>-1</dim>
					<dim>-1</dim>
				</port>
				<port id="1" precision="FP32">
					<dim>32</dim>
					<dim>160</dim>
					<dim>3</dim>
					<dim>3</dim>
				</port>
			</input>
			<output>
				<port id="2" precision="FP32">
					<dim>1</dim>
					<dim>32</dim>
					<dim>-1</dim>
					<dim>-1</dim>
				</port>
			</output>
		</layer>
		<layer id="68" name="Reshape_1010_compressed" type="Const" version="opset1">
			<data element_type="f16" shape="1, 32, 1, 1" offset="272298" size="64" />
			<output>
				<port id="0" precision="FP16">
					<dim>1</dim>
					<dim>32</dim>
					<dim>1</dim>
					<dim>1</dim>
				</port>
			</output>
		</layer>
		<layer id="69" name="Reshape_1010" type="Convert" version="opset1">
			<data destination_type="f32" />
			<rt_info>
				<attribute name="decompression" version="0" />
			</rt_info>
			<input>
				<port id="0" precision="FP16">
					<dim>1</dim>
					<dim>32</dim>
					<dim>1</dim>
					<dim>1</dim>
				</port>
			</input>
			<output>
				<port id="1" precision="FP32">
					<dim>1</dim>
					<dim>32</dim>
					<dim>1</dim>
					<dim>1</dim>
				</port>
			</output>
		</layer>
		<layer id="70" name="/body/body.0/rdb1/conv4/Conv" type="Add" version="opset1">
			<data auto_broadcast="numpy" />
			<input>
				<port id="0" precision="FP32">
					<dim>1</dim>
					<dim>32</dim>
					<dim>-1</dim>
					<dim>-1</dim>
				</port>
				<port id="1" precision="FP32">
					<dim>1</dim>
					<dim>32</dim>
					<dim>1</dim>
					<dim>1</dim>
				</port>
			</input>
			<output>
				<port id="2" precision="FP32" names="/body/body.0/rdb1/conv4/Conv_output_0">
					<dim>1</dim>
					<dim>32</dim>
					<dim>-1</dim>
					<dim>-1</dim>
				</port>
			</output>
		</layer>
		<layer id="71" name="Constant_1012_compressed" type="Const" version="opset1">
			<data element_type="f16" shape="1" offset="50984" size="2" />
			<output>
				<port id="0" precision="FP16">
					<dim>1</dim>
				</port>
			</output>
		</layer>
		<layer id="72" name="Constant_1012" type="Convert" version="opset1">
			<data destination_type="f32" />
			<rt_info>
				<attribute name="decompression" version="0" />
			</rt_info>
			<input>
				<port id="0" precision="FP16">
					<dim>1</dim>
				</port>
			</input>
			<output>
				<port id="1" precision="FP32">
					<dim>1</dim>
				</port>
			</output>
		</layer>
		<layer id="73" name="/body/body.0/rdb1/lrelu_3/LeakyRelu" type="PReLU" version="opset1">
			<input>
				<port id="0" precision="FP32">
					<dim>1</dim>
					<dim>32</dim>
					<dim>-1</dim>
					<dim>-1</dim>
				</port>
				<port id="1" precision="FP32">
					<dim>1</dim>
				</port>
			</input>
			<output>
				<port id="2" precision="FP32" names="/body/body.0/rdb1/lrelu_3/LeakyRelu_output_0">
					<dim>1</dim>
					<dim>32</dim>
					<dim>-1</dim>
					<dim>-1</dim>
				</port>
			</output>
		</layer>
		<layer id="74" name="/body/body.0/rdb1/Concat_3" type="Concat" version="opset1">
			<data axis="1" />
			<input>
				<port id="0" precision="FP32">
					<dim>1</dim>
					<dim>64</dim>
					<dim>-1</dim>
					<dim>-1</dim>
				</port>
				<port id="1" precision="FP32">
					<dim>1</dim>
					<dim>32</dim>
					<dim>-1</dim>
					<dim>-1</dim>
				</port>
				<port id="2" precision="FP32">
					<dim>1</dim>
					<dim>32</dim>
					<dim>-1</dim>
					<dim>-1</dim>
				</port>
				<port id="3" precision="FP32">
					<dim>1</dim>
					<dim>32</dim>
					<dim>-1</dim>
					<dim>-1</dim>
				</port>
				<port id="4" precision="FP32">
					<dim>1</dim>
					<dim>32</dim>
					<dim>-1</dim>
					<dim>-1</dim>
				</port>
			</input>
			<output>
				<port id="5" precision="FP32" names="/body/body.0/rdb1/Concat_3_output_0">
					<dim>1</dim>
					<dim>192</dim>
					<dim>-1</dim>
					<dim>-1</dim>
				</port>
			</output>
		</layer>
		<layer id="75" name="Multiply_14053_compressed" type="Const" version="opset1">
			<data element_type="f16" shape="64, 192, 3, 3" offset="272362" size="221184" />
			<output>
				<port id="0" precision="FP16">
					<dim>64</dim>
					<dim>192</dim>
					<dim>3</dim>
					<dim>3</dim>
				</port>
			</output>
		</layer>
		<layer id="76" name="Multiply_14053" type="Convert" version="opset1">
			<data destination_type="f32" />
			<rt_info>
				<attribute name="decompression" version="0" />
			</rt_info>
			<input>
				<port id="0" precision="FP16">
					<dim>64</dim>
					<dim>192</dim>
					<dim>3</dim>
					<dim>3</dim>
				</port>
			</input>
			<output>
				<port id="1" precision="FP32">
					<dim>64</dim>
					<dim>192</dim>
					<dim>3</dim>
					<dim>3</dim>
				</port>
			</output>
		</layer>
		<layer id="77" name="Multiply_13777" type="Convolution" version="opset1">
			<data strides="1, 1" dilations="1, 1" pads_begin="1, 1" pads_end="1, 1" auto_pad="explicit" />
			<input>
				<port id="0" precision="FP32">
					<dim>1</dim>
					<dim>192</dim>
					<dim>-1</dim>
					<dim>-1</dim>
				</port>
				<port id="1" precision="FP32">
					<dim>64</dim>
					<dim>192</dim>
					<dim>3</dim>
					<dim>3</dim>
				</port>
			</input>
			<output>
				<port id="2" precision="FP32">
					<dim>1</dim>
					<dim>64</dim>
					<dim>-1</dim>
					<dim>-1</dim>
				</port>
			</output>
		</layer>
		<layer id="78" name="Constant_13779_compressed" type="Const" version="opset1">
			<data element_type="f16" shape="1, 64, 1, 1" offset="493546" size="128" />
			<output>
				<port id="0" precision="FP16">
					<dim>1</dim>
					<dim>64</dim>
					<dim>1</dim>
					<dim>1</dim>
				</port>
			</output>
		</layer>
		<layer id="79" name="Constant_13779" type="Convert" version="opset1">
			<data destination_type="f32" />
			<rt_info>
				<attribute name="decompression" version="0" />
			</rt_info>
			<input>
				<port id="0" precision="FP16">
					<dim>1</dim>
					<dim>64</dim>
					<dim>1</dim>
					<dim>1</dim>
				</port>
			</input>
			<output>
				<port id="1" precision="FP32">
					<dim>1</dim>
					<dim>64</dim>
					<dim>1</dim>
					<dim>1</dim>
				</port>
			</output>
		</layer>
		<layer id="80" name="/body/body.0/rdb1/Mul" type="Add" version="opset1">
			<data auto_broadcast="numpy" />
			<input>
				<port id="0" precision="FP32">
					<dim>1</dim>
					<dim>64</dim>
					<dim>-1</dim>
					<dim>-1</dim>
				</port>
				<port id="1" precision="FP32">
					<dim>1</dim>
					<dim>64</dim>
					<dim>1</dim>
					<dim>1</dim>
				</port>
			</input>
			<output>
				<port id="2" precision="FP32" names="/body/body.0/rdb1/Mul_output_0">
					<dim>1</dim>
					<dim>64</dim>
					<dim>-1</dim>
					<dim>-1</dim>
				</port>
			</output>
		</layer>
		<layer id="81" name="/body/body.0/rdb1/Add" type="Add" version="opset1">
			<data auto_broadcast="numpy" />
			<input>
				<port id="0" precision="FP32">
					<dim>1</dim>
					<dim>64</dim>
					<dim>-1</dim>
					<dim>-1</dim>
				</port>
				<port id="1" precision="FP32">
					<dim>1</dim>
					<dim>64</dim>
					<dim>-1</dim>
					<dim>-1</dim>
				</port>
			</input>
			<output>
				<port id="2" precision="FP32" names="/body/body.0/rdb1/Add_output_0">
					<dim>1</dim>
					<dim>64</dim>
					<dim>-1</dim>
					<dim>-1</dim>
				</port>
			</output>
		</layer>
		<layer id="82" name="body.0.rdb2.conv1.weight_compressed" type="Const" version="opset1">
			<data element_type="f16" shape="32, 64, 3, 3" offset="493674" size="36864" />
			<output>
				<port id="0" precision="FP16" names="body.0.rdb2.conv1.weight">
					<dim>32</dim>
					<dim>64</dim>
					<dim>3</dim>
					<dim>3</dim>
				</port>
			</output>
		</layer>
		<layer id="83" name="body.0.rdb2.conv1.weight" type="Convert" version="opset1">
			<data destination_type="f32" />
			<rt_info>
				<attribute name="decompression" version="0" />
			</rt_info>
			<input>
				<port id="0" precision="FP16">
					<dim>32</dim>
					<dim>64</dim>
					<dim>3</dim>
					<dim>3</dim>
				</port>
			</input>
			<output>
				<port id="1" precision="FP32">
					<dim>32</dim>
					<dim>64</dim>
					<dim>3</dim>
					<dim>3</dim>
				</port>
			</output>
		</layer>
		<layer id="84" name="/body/body.0/rdb2/conv1/Conv/WithoutBiases" type="Convolution" version="opset1">
			<data strides="1, 1" dilations="1, 1" pads_begin="1, 1" pads_end="1, 1" auto_pad="explicit" />
			<input>
				<port id="0" precision="FP32">
					<dim>1</dim>
					<dim>64</dim>
					<dim>-1</dim>
					<dim>-1</dim>
				</port>
				<port id="1" precision="FP32">
					<dim>32</dim>
					<dim>64</dim>
					<dim>3</dim>
					<dim>3</dim>
				</port>
			</input>
			<output>
				<port id="2" precision="FP32">
					<dim>1</dim>
					<dim>32</dim>
					<dim>-1</dim>
					<dim>-1</dim>
				</port>
			</output>
		</layer>
		<layer id="85" name="Reshape_1042_compressed" type="Const" version="opset1">
			<data element_type="f16" shape="1, 32, 1, 1" offset="530538" size="64" />
			<output>
				<port id="0" precision="FP16">
					<dim>1</dim>
					<dim>32</dim>
					<dim>1</dim>
					<dim>1</dim>
				</port>
			</output>
		</layer>
		<layer id="86" name="Reshape_1042" type="Convert" version="opset1">
			<data destination_type="f32" />
			<rt_info>
				<attribute name="decompression" version="0" />
			</rt_info>
			<input>
				<port id="0" precision="FP16">
					<dim>1</dim>
					<dim>32</dim>
					<dim>1</dim>
					<dim>1</dim>
				</port>
			</input>
			<output>
				<port id="1" precision="FP32">
					<dim>1</dim>
					<dim>32</dim>
					<dim>1</dim>
					<dim>1</dim>
				</port>
			</output>
		</layer>
		<layer id="87" name="/body/body.0/rdb2/conv1/Conv" type="Add" version="opset1">
			<data auto_broadcast="numpy" />
			<input>
				<port id="0" precision="FP32">
					<dim>1</dim>
					<dim>32</dim>
					<dim>-1</dim>
					<dim>-1</dim>
				</port>
				<port id="1" precision="FP32">
					<dim>1</dim>
					<dim>32</dim>
					<dim>1</dim>
					<dim>1</dim>
				</port>
			</input>
			<output>
				<port id="2" precision="FP32" names="/body/body.0/rdb2/conv1/Conv_output_0">
					<dim>1</dim>
					<dim>32</dim>
					<dim>-1</dim>
					<dim>-1</dim>
				</port>
			</output>
		</layer>
		<layer id="88" name="Constant_1044_compressed" type="Const" version="opset1">
			<data element_type="f16" shape="1" offset="50984" size="2" />
			<output>
				<port id="0" precision="FP16">
					<dim>1</dim>
				</port>
			</output>
		</layer>
		<layer id="89" name="Constant_1044" type="Convert" version="opset1">
			<data destination_type="f32" />
			<rt_info>
				<attribute name="decompression" version="0" />
			</rt_info>
			<input>
				<port id="0" precision="FP16">
					<dim>1</dim>
				</port>
			</input>
			<output>
				<port id="1" precision="FP32">
					<dim>1</dim>
				</port>
			</output>
		</layer>
		<layer id="90" name="/body/body.0/rdb2/lrelu/LeakyRelu" type="PReLU" version="opset1">
			<input>
				<port id="0" precision="FP32">
					<dim>1</dim>
					<dim>32</dim>
					<dim>-1</dim>
					<dim>-1</dim>
				</port>
				<port id="1" precision="FP32">
					<dim>1</dim>
				</port>
			</input>
			<output>
				<port id="2" precision="FP32" names="/body/body.0/rdb2/lrelu/LeakyRelu_output_0">
					<dim>1</dim>
					<dim>32</dim>
					<dim>-1</dim>
					<dim>-1</dim>
				</port>
			</output>
		</layer>
		<layer id="91" name="/body/body.0/rdb2/Concat" type="Concat" version="opset1">
			<data axis="1" />
			<input>
				<port id="0" precision="FP32">
					<dim>1</dim>
					<dim>64</dim>
					<dim>-1</dim>
					<dim>-1</dim>
				</port>
				<port id="1" precision="FP32">
					<dim>1</dim>
					<dim>32</dim>
					<dim>-1</dim>
					<dim>-1</dim>
				</port>
			</input>
			<output>
				<port id="2" precision="FP32" names="/body/body.0/rdb2/Concat_output_0">
					<dim>1</dim>
					<dim>96</dim>
					<dim>-1</dim>
					<dim>-1</dim>
				</port>
			</output>
		</layer>
		<layer id="92" name="body.0.rdb2.conv2.weight_compressed" type="Const" version="opset1">
			<data element_type="f16" shape="32, 96, 3, 3" offset="530602" size="55296" />
			<output>
				<port id="0" precision="FP16" names="body.0.rdb2.conv2.weight">
					<dim>32</dim>
					<dim>96</dim>
					<dim>3</dim>
					<dim>3</dim>
				</port>
			</output>
		</layer>
		<layer id="93" name="body.0.rdb2.conv2.weight" type="Convert" version="opset1">
			<data destination_type="f32" />
			<rt_info>
				<attribute name="decompression" version="0" />
			</rt_info>
			<input>
				<port id="0" precision="FP16">
					<dim>32</dim>
					<dim>96</dim>
					<dim>3</dim>
					<dim>3</dim>
				</port>
			</input>
			<output>
				<port id="1" precision="FP32">
					<dim>32</dim>
					<dim>96</dim>
					<dim>3</dim>
					<dim>3</dim>
				</port>
			</output>
		</layer>
		<layer id="94" name="/body/body.0/rdb2/conv2/Conv/WithoutBiases" type="Convolution" version="opset1">
			<data strides="1, 1" dilations="1, 1" pads_begin="1, 1" pads_end="1, 1" auto_pad="explicit" />
			<input>
				<port id="0" precision="FP32">
					<dim>1</dim>
					<dim>96</dim>
					<dim>-1</dim>
					<dim>-1</dim>
				</port>
				<port id="1" precision="FP32">
					<dim>32</dim>
					<dim>96</dim>
					<dim>3</dim>
					<dim>3</dim>
				</port>
			</input>
			<output>
				<port id="2" precision="FP32">
					<dim>1</dim>
					<dim>32</dim>
					<dim>-1</dim>
					<dim>-1</dim>
				</port>
			</output>
		</layer>
		<layer id="95" name="Reshape_1058_compressed" type="Const" version="opset1">
			<data element_type="f16" shape="1, 32, 1, 1" offset="585898" size="64" />
			<output>
				<port id="0" precision="FP16">
					<dim>1</dim>
					<dim>32</dim>
					<dim>1</dim>
					<dim>1</dim>
				</port>
			</output>
		</layer>
		<layer id="96" name="Reshape_1058" type="Convert" version="opset1">
			<data destination_type="f32" />
			<rt_info>
				<attribute name="decompression" version="0" />
			</rt_info>
			<input>
				<port id="0" precision="FP16">
					<dim>1</dim>
					<dim>32</dim>
					<dim>1</dim>
					<dim>1</dim>
				</port>
			</input>
			<output>
				<port id="1" precision="FP32">
					<dim>1</dim>
					<dim>32</dim>
					<dim>1</dim>
					<dim>1</dim>
				</port>
			</output>
		</layer>
		<layer id="97" name="/body/body.0/rdb2/conv2/Conv" type="Add" version="opset1">
			<data auto_broadcast="numpy" />
			<input>
				<port id="0" precision="FP32">
					<dim>1</dim>
					<dim>32</dim>
					<dim>-1</dim>
					<dim>-1</dim>
				</port>
				<port id="1" precision="FP32">
					<dim>1</dim>
					<dim>32</dim>
					<dim>1</dim>
					<dim>1</dim>
				</port>
			</input>
			<output>
				<port id="2" precision="FP32" names="/body/body.0/rdb2/conv2/Conv_output_0">
					<dim>1</dim>
					<dim>32</dim>
					<dim>-1</dim>
					<dim>-1</dim>
				</port>
			</output>
		</layer>
		<layer id="98" name="Constant_1060_compressed" type="Const" version="opset1">
			<data element_type="f16" shape="1" offset="50984" size="2" />
			<output>
				<port id="0" precision="FP16">
					<dim>1</dim>
				</port>
			</output>
		</layer>
		<layer id="99" name="Constant_1060" type="Convert" version="opset1">
			<data destination_type="f32" />
			<rt_info>
				<attribute name="decompression" version="0" />
			</rt_info>
			<input>
				<port id="0" precision="FP16">
					<dim>1</dim>
				</port>
			</input>
			<output>
				<port id="1" precision="FP32">
					<dim>1</dim>
				</port>
			</output>
		</layer>
		<layer id="100" name="/body/body.0/rdb2/lrelu_1/LeakyRelu" type="PReLU" version="opset1">
			<input>
				<port id="0" precision="FP32">
					<dim>1</dim>
					<dim>32</dim>
					<dim>-1</dim>
					<dim>-1</dim>
				</port>
				<port id="1" precision="FP32">
					<dim>1</dim>
				</port>
			</input>
			<output>
				<port id="2" precision="FP32" names="/body/body.0/rdb2/lrelu_1/LeakyRelu_output_0">
					<dim>1</dim>
					<dim>32</dim>
					<dim>-1</dim>
					<dim>-1</dim>
				</port>
			</output>
		</layer>
		<layer id="101" name="/body/body.0/rdb2/Concat_1" type="Concat" version="opset1">
			<data axis="1" />
			<input>
				<port id="0" precision="FP32">
					<dim>1</dim>
					<dim>64</dim>
					<dim>-1</dim>
					<dim>-1</dim>
				</port>
				<port id="1" precision="FP32">
					<dim>1</dim>
					<dim>32</dim>
					<dim>-1</dim>
					<dim>-1</dim>
				</port>
				<port id="2" precision="FP32">
					<dim>1</dim>
					<dim>32</dim>
					<dim>-1</dim>
					<dim>-1</dim>
				</port>
			</input>
			<output>
				<port id="3" precision="FP32" names="/body/body.0/rdb2/Concat_1_output_0">
					<dim>1</dim>
					<dim>128</dim>
					<dim>-1</dim>
					<dim>-1</dim>
				</port>
			</output>
		</layer>
		<layer id="102" name="body.0.rdb2.conv3.weight_compressed" type="Const" version="opset1">
			<data element_type="f16" shape="32, 128, 3, 3" offset="585962" size="73728" />
			<output>
				<port id="0" precision="FP16" names="body.0.rdb2.conv3.weight">
					<dim>32</dim>
					<dim>128</dim>
					<dim>3</dim>
					<dim>3</dim>
				</port>
			</output>
		</layer>
		<layer id="103" name="body.0.rdb2.conv3.weight" type="Convert" version="opset1">
			<data destination_type="f32" />
			<rt_info>
				<attribute name="decompression" version="0" />
			</rt_info>
			<input>
				<port id="0" precision="FP16">
					<dim>32</dim>
					<dim>128</dim>
					<dim>3</dim>
					<dim>3</dim>
				</port>
			</input>
			<output>
				<port id="1" precision="FP32">
					<dim>32</dim>
					<dim>128</dim>
					<dim>3</dim>
					<dim>3</dim>
				</port>
			</output>
		</layer>
		<layer id="104" name="/body/body.0/rdb2/conv3/Conv/WithoutBiases" type="Convolution" version="opset1">
			<data strides="1, 1" dilations="1, 1" pads_begin="1, 1" pads_end="1, 1" auto_pad="explicit" />
			<input>
				<port id="0" precision="FP32">
					<dim>1</dim>
					<dim>128</dim>
					<dim>-1</dim>
					<dim>-1</dim>
				</port>
				<port id="1" precision="FP32">
					<dim>32</dim>
					<dim>128</dim>
					<dim>3</dim>
					<dim>3</dim>
				</port>
			</input>
			<output>
				<port id="2" precision="FP32">
					<dim>1</dim>
					<dim>32</dim>
					<dim>-1</dim>
					<dim>-1</dim>
				</port>
			</output>
		</layer>
		<layer id="105" name="Reshape_1074_compressed" type="Const" version="opset1">
			<data element_type="f16" shape="1, 32, 1, 1" offset="659690" size="64" />
			<output>
				<port id="0" precision="FP16">
					<dim>1</dim>
					<dim>32</dim>
					<dim>1</dim>
					<dim>1</dim>
				</port>
			</output>
		</layer>
		<layer id="106" name="Reshape_1074" type="Convert" version="opset1">
			<data destination_type="f32" />
			<rt_info>
				<attribute name="decompression" version="0" />
			</rt_info>
			<input>
				<port id="0" precision="FP16">
					<dim>1</dim>
					<dim>32</dim>
					<dim>1</dim>
					<dim>1</dim>
				</port>
			</input>
			<output>
				<port id="1" precision="FP32">
					<dim>1</dim>
					<dim>32</dim>
					<dim>1</dim>
					<dim>1</dim>
				</port>
			</output>
		</layer>
		<layer id="107" name="/body/body.0/rdb2/conv3/Conv" type="Add" version="opset1">
			<data auto_broadcast="numpy" />
			<input>
				<port id="0" precision="FP32">
					<dim>1</dim>
					<dim>32</dim>
					<dim>-1</dim>
					<dim>-1</dim>
				</port>
				<port id="1" precision="FP32">
					<dim>1</dim>
					<dim>32</dim>
					<dim>1</dim>
					<dim>1</dim>
				</port>
			</input>
			<output>
				<port id="2" precision="FP32" names="/body/body.0/rdb2/conv3/Conv_output_0">
					<dim>1</dim>
					<dim>32</dim>
					<dim>-1</dim>
					<dim>-1</dim>
				</port>
			</output>
		</layer>
		<layer id="108" name="Constant_1076_compressed" type="Const" version="opset1">
			<data element_type="f16" shape="1" offset="50984" size="2" />
			<output>
				<port id="0" precision="FP16">
					<dim>1</dim>
				</port>
			</output>
		</layer>
		<layer id="109" name="Constant_1076" type="Convert" version="opset1">
			<data destination_type="f32" />
			<rt_info>
				<attribute name="decompression" version="0" />
			</rt_info>
			<input>
				<port id="0" precision="FP16">
					<dim>1</dim>
				</port>
			</input>
			<output>
				<port id="1" precision="FP32">
					<dim>1</dim>
				</port>
			</output>
		</layer>
		<layer id="110" name="/body/body.0/rdb2/lrelu_2/LeakyRelu" type="PReLU" version="opset1">
			<input>
				<port id="0" precision="FP32">
					<dim>1</dim>
					<dim>32</dim>
					<dim>-1</dim>
					<dim>-1</dim>
				</port>
				<port id="1" precision="FP32">
					<dim>1</dim>
				</port>
			</input>
			<output>
				<port id="2" precision="FP32" names="/body/body.0/rdb2/lrelu_2/LeakyRelu_output_0">
					<dim>1</dim>
					<dim>32</dim>
					<dim>-1</dim>
					<dim>-1</dim>
				</port>
			</output>
		</layer>
		<layer id="111" name="/body/body.0/rdb2/Concat_2" type="Concat" version="opset1">
			<data axis="1" />
			<input>
				<port id="0" precision="FP32">
					<dim>1</dim>
					<dim>64</dim>
					<dim>-1</dim>
					<dim>-1</dim>
				</port>
				<port id="1" precision="FP32">
					<dim>1</dim>
					<dim>32</dim>
					<dim>-1</dim>
					<dim>-1</dim>
				</port>
				<port id="2" precision="FP32">
					<dim>1</dim>
					<dim>32</dim>
					<dim>-1</dim>
					<dim>-1</dim>
				</port>
				<port id="3" precision="FP32">
					<dim>1</dim>
					<dim>32</dim>
					<dim>-1</dim>
					<dim>-1</dim>
				</port>
			</input>
			<output>
				<port id="4" precision="FP32" names="/body/body.0/rdb2/Concat_2_output_0">
					<dim>1</dim>
					<dim>160</dim>
					<dim>-1</dim>
					<dim>-1</dim>
				</port>
			</output>
		</layer>
		<layer id="112" name="body.0.rdb2.conv4.weight_compressed" type="Const" version="opset1">
			<data element_type="f16" shape="32, 160, 3, 3" offset="659754" size="92160" />
			<output>
				<port id="0" precision="FP16" names="body.0.rdb2.conv4.weight">
					<dim>32</dim>
					<dim>160</dim>
					<dim>3</dim>
					<dim>3</dim>
				</port>
			</output>
		</layer>
		<layer id="113" name="body.0.rdb2.conv4.weight" type="Convert" version="opset1">
			<data destination_type="f32" />
			<rt_info>
				<attribute name="decompression" version="0" />
			</rt_info>
			<input>
				<port id="0" precision="FP16">
					<dim>32</dim>
					<dim>160</dim>
					<dim>3</dim>
					<dim>3</dim>
				</port>
			</input>
			<output>
				<port id="1" precision="FP32">
					<dim>32</dim>
					<dim>160</dim>
					<dim>3</dim>
					<dim>3</dim>
				</port>
			</output>
		</layer>
		<layer id="114" name="/body/body.0/rdb2/conv4/Conv/WithoutBiases" type="Convolution" version="opset1">
			<data strides="1, 1" dilations="1, 1" pads_begin="1, 1" pads_end="1, 1" auto_pad="explicit" />
			<input>
				<port id="0" precision="FP32">
					<dim>1</dim>
					<dim>160</dim>
					<dim>-1</dim>
					<dim>-1</dim>
				</port>
				<port id="1" precision="FP32">
					<dim>32</dim>
					<dim>160</dim>
					<dim>3</dim>
					<dim>3</dim>
				</port>
			</input>
			<output>
				<port id="2" precision="FP32">
					<dim>1</dim>
					<dim>32</dim>
					<dim>-1</dim>
					<dim>-1</dim>
				</port>
			</output>
		</layer>
		<layer id="115" name="Reshape_1090_compressed" type="Const" version="opset1">
			<data element_type="f16" shape="1, 32, 1, 1" offset="751914" size="64" />
			<output>
				<port id="0" precision="FP16">
					<dim>1</dim>
					<dim>32</dim>
					<dim>1</dim>
					<dim>1</dim>
				</port>
			</output>
		</layer>
		<layer id="116" name="Reshape_1090" type="Convert" version="opset1">
			<data destination_type="f32" />
			<rt_info>
				<attribute name="decompression" version="0" />
			</rt_info>
			<input>
				<port id="0" precision="FP16">
					<dim>1</dim>
					<dim>32</dim>
					<dim>1</dim>
					<dim>1</dim>
				</port>
			</input>
			<output>
				<port id="1" precision="FP32">
					<dim>1</dim>
					<dim>32</dim>
					<dim>1</dim>
					<dim>1</dim>
				</port>
			</output>
		</layer>
		<layer id="117" name="/body/body.0/rdb2/conv4/Conv" type="Add" version="opset1">
			<data auto_broadcast="numpy" />
			<input>
				<port id="0" precision="FP32">
					<dim>1</dim>
					<dim>32</dim>
					<dim>-1</dim>
					<dim>-1</dim>
				</port>
				<port id="1" precision="FP32">
					<dim>1</dim>
					<dim>32</dim>
					<dim>1</dim>
					<dim>1</dim>
				</port>
			</input>
			<output>
				<port id="2" precision="FP32" names="/body/body.0/rdb2/conv4/Conv_output_0">
					<dim>1</dim>
					<dim>32</dim>
					<dim>-1</dim>
					<dim>-1</dim>
				</port>
			</output>
		</layer>
		<layer id="118" name="Constant_1092_compressed" type="Const" version="opset1">
			<data element_type="f16" shape="1" offset="50984" size="2" />
			<output>
				<port id="0" precision="FP16">
					<dim>1</dim>
				</port>
			</output>
		</layer>
		<layer id="119" name="Constant_1092" type="Convert" version="opset1">
			<data destination_type="f32" />
			<rt_info>
				<attribute name="decompression" version="0" />
			</rt_info>
			<input>
				<port id="0" precision="FP16">
					<dim>1</dim>
				</port>
			</input>
			<output>
				<port id="1" precision="FP32">
					<dim>1</dim>
				</port>
			</output>
		</layer>
		<layer id="120" name="/body/body.0/rdb2/lrelu_3/LeakyRelu" type="PReLU" version="opset1">
			<input>
				<port id="0" precision="FP32">
					<dim>1</dim>
					<dim>32</dim>
					<dim>-1</dim>
					<dim>-1</dim>
				</port>
				<port id="1" precision="FP32">
					<dim>1</dim>
				</port>
			</input>
			<output>
				<port id="2" precision="FP32" names="/body/body.0/rdb2/lrelu_3/LeakyRelu_output_0">
					<dim>1</dim>
					<dim>32</dim>
					<dim>-1</dim>
					<dim>-1</dim>
				</port>
			</output>
		</layer>
		<layer id="121" name="/body/body.0/rdb2/Concat_3" type="Concat" version="opset1">
			<data axis="1" />
			<input>
				<port id="0" precision="FP32">
					<dim>1</dim>
					<dim>64</dim>
					<dim>-1</dim>
					<dim>-1</dim>
				</port>
				<port id="1" precision="FP32">
					<dim>1</dim>
					<dim>32</dim>
					<dim>-1</dim>
					<dim>-1</dim>
				</port>
				<port id="2" precision="FP32">
					<dim>1</dim>
					<dim>32</dim>
					<dim>-1</dim>
					<dim>-1</dim>
				</port>
				<port id="3" precision="FP32">
					<dim>1</dim>
					<dim>32</dim>
					<dim>-1</dim>
					<dim>-1</dim>
				</port>
				<port id="4" precision="FP32">
					<dim>1</dim>
					<dim>32</dim>
					<dim>-1</dim>
					<dim>-1</dim>
				</port>
			</input>
			<output>
				<port id="5" precision="FP32" names="/body/body.0/rdb2/Concat_3_output_0">
					<dim>1</dim>
					<dim>192</dim>
					<dim>-1</dim>
					<dim>-1</dim>
				</port>
			</output>
		</layer>
		<layer id="122" name="Multiply_14055_compressed" type="Const" version="opset1">
			<data element_type="f16" shape="64, 192, 3, 3" offset="751978" size="221184" />
			<output>
				<port id="0" precision="FP16">
					<dim>64</dim>
					<dim>192</dim>
					<dim>3</dim>
					<dim>3</dim>
				</port>
			</output>
		</layer>
		<layer id="123" name="Multiply_14055" type="Convert" version="opset1">
			<data destination_type="f32" />
			<rt_info>
				<attribute name="decompression" version="0" />
			</rt_info>
			<input>
				<port id="0" precision="FP16">
					<dim>64</dim>
					<dim>192</dim>
					<dim>3</dim>
					<dim>3</dim>
				</port>
			</input>
			<output>
				<port id="1" precision="FP32">
					<dim>64</dim>
					<dim>192</dim>
					<dim>3</dim>
					<dim>3</dim>
				</port>
			</output>
		</layer>
		<layer id="124" name="Multiply_13781" type="Convolution" version="opset1">
			<data strides="1, 1" dilations="1, 1" pads_begin="1, 1" pads_end="1, 1" auto_pad="explicit" />
			<input>
				<port id="0" precision="FP32">
					<dim>1</dim>
					<dim>192</dim>
					<dim>-1</dim>
					<dim>-1</dim>
				</port>
				<port id="1" precision="FP32">
					<dim>64</dim>
					<dim>192</dim>
					<dim>3</dim>
					<dim>3</dim>
				</port>
			</input>
			<output>
				<port id="2" precision="FP32">
					<dim>1</dim>
					<dim>64</dim>
					<dim>-1</dim>
					<dim>-1</dim>
				</port>
			</output>
		</layer>
		<layer id="125" name="Constant_13783_compressed" type="Const" version="opset1">
			<data element_type="f16" shape="1, 64, 1, 1" offset="973162" size="128" />
			<output>
				<port id="0" precision="FP16">
					<dim>1</dim>
					<dim>64</dim>
					<dim>1</dim>
					<dim>1</dim>
				</port>
			</output>
		</layer>
		<layer id="126" name="Constant_13783" type="Convert" version="opset1">
			<data destination_type="f32" />
			<rt_info>
				<attribute name="decompression" version="0" />
			</rt_info>
			<input>
				<port id="0" precision="FP16">
					<dim>1</dim>
					<dim>64</dim>
					<dim>1</dim>
					<dim>1</dim>
				</port>
			</input>
			<output>
				<port id="1" precision="FP32">
					<dim>1</dim>
					<dim>64</dim>
					<dim>1</dim>
					<dim>1</dim>
				</port>
			</output>
		</layer>
		<layer id="127" name="/body/body.0/rdb2/Mul" type="Add" version="opset1">
			<data auto_broadcast="numpy" />
			<input>
				<port id="0" precision="FP32">
					<dim>1</dim>
					<dim>64</dim>
					<dim>-1</dim>
					<dim>-1</dim>
				</port>
				<port id="1" precision="FP32">
					<dim>1</dim>
					<dim>64</dim>
					<dim>1</dim>
					<dim>1</dim>
				</port>
			</input>
			<output>
				<port id="2" precision="FP32" names="/body/body.0/rdb2/Mul_output_0">
					<dim>1</dim>
					<dim>64</dim>
					<dim>-1</dim>
					<dim>-1</dim>
				</port>
			</output>
		</layer>
		<layer id="128" name="/body/body.0/rdb2/Add" type="Add" version="opset1">
			<data auto_broadcast="numpy" />
			<input>
				<port id="0" precision="FP32">
					<dim>1</dim>
					<dim>64</dim>
					<dim>-1</dim>
					<dim>-1</dim>
				</port>
				<port id="1" precision="FP32">
					<dim>1</dim>
					<dim>64</dim>
					<dim>-1</dim>
					<dim>-1</dim>
				</port>
			</input>
			<output>
				<port id="2" precision="FP32" names="/body/body.0/rdb2/Add_output_0">
					<dim>1</dim>
					<dim>64</dim>
					<dim>-1</dim>
					<dim>-1</dim>
				</port>
			</output>
		</layer>
		<layer id="129" name="body.0.rdb3.conv1.weight_compressed" type="Const" version="opset1">
			<data element_type="f16" shape="32, 64, 3, 3" offset="973290" size="36864" />
			<output>
				<port id="0" precision="FP16" names="body.0.rdb3.conv1.weight">
					<dim>32</dim>
					<dim>64</dim>
					<dim>3</dim>
					<dim>3</dim>
				</port>
			</output>
		</layer>
		<layer id="130" name="body.0.rdb3.conv1.weight" type="Convert" version="opset1">
			<data destination_type="f32" />
			<rt_info>
				<attribute name="decompression" version="0" />
			</rt_info>
			<input>
				<port id="0" precision="FP16">
					<dim>32</dim>
					<dim>64</dim>
					<dim>3</dim>
					<dim>3</dim>
				</port>
			</input>
			<output>
				<port id="1" precision="FP32">
					<dim>32</dim>
					<dim>64</dim>
					<dim>3</dim>
					<dim>3</dim>
				</port>
			</output>
		</layer>
		<layer id="131" name="/body/body.0/rdb3/conv1/Conv/WithoutBiases" type="Convolution" version="opset1">
			<data strides="1, 1" dilations="1, 1" pads_begin="1, 1" pads_end="1, 1" auto_pad="explicit" />
			<input>
				<port id="0" precision="FP32">
					<dim>1</dim>
					<dim>64</dim>
					<dim>-1</dim>
					<dim>-1</dim>
				</port>
				<port id="1" precision="FP32">
					<dim>32</dim>
					<dim>64</dim>
					<dim>3</dim>
					<dim>3</dim>
				</port>
			</input>
			<output>
				<port id="2" precision="FP32">
					<dim>1</dim>
					<dim>32</dim>
					<dim>-1</dim>
					<dim>-1</dim>
				</port>
			</output>
		</layer>
		<layer id="132" name="Reshape_1122_compressed" type="Const" version="opset1">
			<data element_type="f16" shape="1, 32, 1, 1" offset="1010154" size="64" />
			<output>
				<port id="0" precision="FP16">
					<dim>1</dim>
					<dim>32</dim>
					<dim>1</dim>
					<dim>1</dim>
				</port>
			</output>
		</layer>
		<layer id="133" name="Reshape_1122" type="Convert" version="opset1">
			<data destination_type="f32" />
			<rt_info>
				<attribute name="decompression" version="0" />
			</rt_info>
			<input>
				<port id="0" precision="FP16">
					<dim>1</dim>
					<dim>32</dim>
					<dim>1</dim>
					<dim>1</dim>
				</port>
			</input>
			<output>
				<port id="1" precision="FP32">
					<dim>1</dim>
					<dim>32</dim>
					<dim>1</dim>
					<dim>1</dim>
				</port>
			</output>
		</layer>
		<layer id="134" name="/body/body.0/rdb3/conv1/Conv" type="Add" version="opset1">
			<data auto_broadcast="numpy" />
			<input>
				<port id="0" precision="FP32">
					<dim>1</dim>
					<dim>32</dim>
					<dim>-1</dim>
					<dim>-1</dim>
				</port>
				<port id="1" precision="FP32">
					<dim>1</dim>
					<dim>32</dim>
					<dim>1</dim>
					<dim>1</dim>
				</port>
			</input>
			<output>
				<port id="2" precision="FP32" names="/body/body.0/rdb3/conv1/Conv_output_0">
					<dim>1</dim>
					<dim>32</dim>
					<dim>-1</dim>
					<dim>-1</dim>
				</port>
			</output>
		</layer>
		<layer id="135" name="Constant_1124_compressed" type="Const" version="opset1">
			<data element_type="f16" shape="1" offset="50984" size="2" />
			<output>
				<port id="0" precision="FP16">
					<dim>1</dim>
				</port>
			</output>
		</layer>
		<layer id="136" name="Constant_1124" type="Convert" version="opset1">
			<data destination_type="f32" />
			<rt_info>
				<attribute name="decompression" version="0" />
			</rt_info>
			<input>
				<port id="0" precision="FP16">
					<dim>1</dim>
				</port>
			</input>
			<output>
				<port id="1" precision="FP32">
					<dim>1</dim>
				</port>
			</output>
		</layer>
		<layer id="137" name="/body/body.0/rdb3/lrelu/LeakyRelu" type="PReLU" version="opset1">
			<input>
				<port id="0" precision="FP32">
					<dim>1</dim>
					<dim>32</dim>
					<dim>-1</dim>
					<dim>-1</dim>
				</port>
				<port id="1" precision="FP32">
					<dim>1</dim>
				</port>
			</input>
			<output>
				<port id="2" precision="FP32" names="/body/body.0/rdb3/lrelu/LeakyRelu_output_0">
					<dim>1</dim>
					<dim>32</dim>
					<dim>-1</dim>
					<dim>-1</dim>
				</port>
			</output>
		</layer>
		<layer id="138" name="/body/body.0/rdb3/Concat" type="Concat" version="opset1">
			<data axis="1" />
			<input>
				<port id="0" precision="FP32">
					<dim>1</dim>
					<dim>64</dim>
					<dim>-1</dim>
					<dim>-1</dim>
				</port>
				<port id="1" precision="FP32">
					<dim>1</dim>
					<dim>32</dim>
					<dim>-1</dim>
					<dim>-1</dim>
				</port>
			</input>
			<output>
				<port id="2" precision="FP32" names="/body/body.0/rdb3/Concat_output_0">
					<dim>1</dim>
					<dim>96</dim>
					<dim>-1</dim>
					<dim>-1</dim>
				</port>
			</output>
		</layer>
		<layer id="139" name="body.0.rdb3.conv2.weight_compressed" type="Const" version="opset1">
			<data element_type="f16" shape="32, 96, 3, 3" offset="1010218" size="55296" />
			<output>
				<port id="0" precision="FP16" names="body.0.rdb3.conv2.weight">
					<dim>32</dim>
					<dim>96</dim>
					<dim>3</dim>
					<dim>3</dim>
				</port>
			</output>
		</layer>
		<layer id="140" name="body.0.rdb3.conv2.weight" type="Convert" version="opset1">
			<data destination_type="f32" />
			<rt_info>
				<attribute name="decompression" version="0" />
			</rt_info>
			<input>
				<port id="0" precision="FP16">
					<dim>32</dim>
					<dim>96</dim>
					<dim>3</dim>
					<dim>3</dim>
				</port>
			</input>
			<output>
				<port id="1" precision="FP32">
					<dim>32</dim>
					<dim>96</dim>
					<dim>3</dim>
					<dim>3</dim>
				</port>
			</output>
		</layer>
		<layer id="141" name="/body/body.0/rdb3/conv2/Conv/WithoutBiases" type="Convolution" version="opset1">
			<data strides="1, 1" dilations="1, 1" pads_begin="1, 1" pads_end="1, 1" auto_pad="explicit" />
			<input>
				<port id="0" precision="FP32">
					<dim>1</dim>
					<dim>96</dim>
					<dim>-1</dim>
					<dim>-1</dim>
				</port>
				<port id="1" precision="FP32">
					<dim>32</dim>
					<dim>96</dim>
					<dim>3</dim>
					<dim>3</dim>
				</port>
			</input>
			<output>
				<port id="2" precision="FP32">
					<dim>1</dim>
					<dim>32</dim>
					<dim>-1</dim>
					<dim>-1</dim>
				</port>
			</output>
		</layer>
		<layer id="142" name="Reshape_1138_compressed" type="Const" version="opset1">
			<data element_type="f16" shape="1, 32, 1, 1" offset="1065514" size="64" />
			<output>
				<port id="0" precision="FP16">
					<dim>1</dim>
					<dim>32</dim>
					<dim>1</dim>
					<dim>1</dim>
				</port>
			</output>
		</layer>
		<layer id="143" name="Reshape_1138" type="Convert" version="opset1">
			<data destination_type="f32" />
			<rt_info>
				<attribute name="decompression" version="0" />
			</rt_info>
			<input>
				<port id="0" precision="FP16">
					<dim>1</dim>
					<dim>32</dim>
					<dim>1</dim>
					<dim>1</dim>
				</port>
			</input>
			<output>
				<port id="1" precision="FP32">
					<dim>1</dim>
					<dim>32</dim>
					<dim>1</dim>
					<dim>1</dim>
				</port>
			</output>
		</layer>
		<layer id="144" name="/body/body.0/rdb3/conv2/Conv" type="Add" version="opset1">
			<data auto_broadcast="numpy" />
			<input>
				<port id="0" precision="FP32">
					<dim>1</dim>
					<dim>32</dim>
					<dim>-1</dim>
					<dim>-1</dim>
				</port>
				<port id="1" precision="FP32">
					<dim>1</dim>
					<dim>32</dim>
					<dim>1</dim>
					<dim>1</dim>
				</port>
			</input>
			<output>
				<port id="2" precision="FP32" names="/body/body.0/rdb3/conv2/Conv_output_0">
					<dim>1</dim>
					<dim>32</dim>
					<dim>-1</dim>
					<dim>-1</dim>
				</port>
			</output>
		</layer>
		<layer id="145" name="Constant_1140_compressed" type="Const" version="opset1">
			<data element_type="f16" shape="1" offset="50984" size="2" />
			<output>
				<port id="0" precision="FP16">
					<dim>1</dim>
				</port>
			</output>
		</layer>
		<layer id="146" name="Constant_1140" type="Convert" version="opset1">
			<data destination_type="f32" />
			<rt_info>
				<attribute name="decompression" version="0" />
			</rt_info>
			<input>
				<port id="0" precision="FP16">
					<dim>1</dim>
				</port>
			</input>
			<output>
				<port id="1" precision="FP32">
					<dim>1</dim>
				</port>
			</output>
		</layer>
		<layer id="147" name="/body/body.0/rdb3/lrelu_1/LeakyRelu" type="PReLU" version="opset1">
			<input>
				<port id="0" precision="FP32">
					<dim>1</dim>
					<dim>32</dim>
					<dim>-1</dim>
					<dim>-1</dim>
				</port>
				<port id="1" precision="FP32">
					<dim>1</dim>
				</port>
			</input>
			<output>
				<port id="2" precision="FP32" names="/body/body.0/rdb3/lrelu_1/LeakyRelu_output_0">
					<dim>1</dim>
					<dim>32</dim>
					<dim>-1</dim>
					<dim>-1</dim>
				</port>
			</output>
		</layer>
		<layer id="148" name="/body/body.0/rdb3/Concat_1" type="Concat" version="opset1">
			<data axis="1" />
			<input>
				<port id="0" precision="FP32">
					<dim>1</dim>
					<dim>64</dim>
					<dim>-1</dim>
					<dim>-1</dim>
				</port>
				<port id="1" precision="FP32">
					<dim>1</dim>
					<dim>32</dim>
					<dim>-1</dim>
					<dim>-1</dim>
				</port>
				<port id="2" precision="FP32">
					<dim>1</dim>
					<dim>32</dim>
					<dim>-1</dim>
					<dim>-1</dim>
				</port>
			</input>
			<output>
				<port id="3" precision="FP32" names="/body/body.0/rdb3/Concat_1_output_0">
					<dim>1</dim>
					<dim>128</dim>
					<dim>-1</dim>
					<dim>-1</dim>
				</port>
			</output>
		</layer>
		<layer id="149" name="body.0.rdb3.conv3.weight_compressed" type="Const" version="opset1">
			<data element_type="f16" shape="32, 128, 3, 3" offset="1065578" size="73728" />
			<output>
				<port id="0" precision="FP16" names="body.0.rdb3.conv3.weight">
					<dim>32</dim>
					<dim>128</dim>
					<dim>3</dim>
					<dim>3</dim>
				</port>
			</output>
		</layer>
		<layer id="150" name="body.0.rdb3.conv3.weight" type="Convert" version="opset1">
			<data destination_type="f32" />
			<rt_info>
				<attribute name="decompression" version="0" />
			</rt_info>
			<input>
				<port id="0" precision="FP16">
					<dim>32</dim>
					<dim>128</dim>
					<dim>3</dim>
					<dim>3</dim>
				</port>
			</input>
			<output>
				<port id="1" precision="FP32">
					<dim>32</dim>
					<dim>128</dim>
					<dim>3</dim>
					<dim>3</dim>
				</port>
			</output>
		</layer>
		<layer id="151" name="/body/body.0/rdb3/conv3/Conv/WithoutBiases" type="Convolution" version="opset1">
			<data strides="1, 1" dilations="1, 1" pads_begin="1, 1" pads_end="1, 1" auto_pad="explicit" />
			<input>
				<port id="0" precision="FP32">
					<dim>1</dim>
					<dim>128</dim>
					<dim>-1</dim>
					<dim>-1</dim>
				</port>
				<port id="1" precision="FP32">
					<dim>32</dim>
					<dim>128</dim>
					<dim>3</dim>
					<dim>3</dim>
				</port>
			</input>
			<output>
				<port id="2" precision="FP32">
					<dim>1</dim>
					<dim>32</dim>
					<dim>-1</dim>
					<dim>-1</dim>
				</port>
			</output>
		</layer>
		<layer id="152" name="Reshape_1154_compressed" type="Const" version="opset1">
			<data element_type="f16" shape="1, 32, 1, 1" offset="1139306" size="64" />
			<output>
				<port id="0" precision="FP16">
					<dim>1</dim>
					<dim>32</dim>
					<dim>1</dim>
					<dim>1</dim>
				</port>
			</output>
		</layer>
		<layer id="153" name="Reshape_1154" type="Convert" version="opset1">
			<data destination_type="f32" />
			<rt_info>
				<attribute name="decompression" version="0" />
			</rt_info>
			<input>
				<port id="0" precision="FP16">
					<dim>1</dim>
					<dim>32</dim>
					<dim>1</dim>
					<dim>1</dim>
				</port>
			</input>
			<output>
				<port id="1" precision="FP32">
					<dim>1</dim>
					<dim>32</dim>
					<dim>1</dim>
					<dim>1</dim>
				</port>
			</output>
		</layer>
		<layer id="154" name="/body/body.0/rdb3/conv3/Conv" type="Add" version="opset1">
			<data auto_broadcast="numpy" />
			<input>
				<port id="0" precision="FP32">
					<dim>1</dim>
					<dim>32</dim>
					<dim>-1</dim>
					<dim>-1</dim>
				</port>
				<port id="1" precision="FP32">
					<dim>1</dim>
					<dim>32</dim>
					<dim>1</dim>
					<dim>1</dim>
				</port>
			</input>
			<output>
				<port id="2" precision="FP32" names="/body/body.0/rdb3/conv3/Conv_output_0">
					<dim>1</dim>
					<dim>32</dim>
					<dim>-1</dim>
					<dim>-1</dim>
				</port>
			</output>
		</layer>
		<layer id="155" name="Constant_1156_compressed" type="Const" version="opset1">
			<data element_type="f16" shape="1" offset="50984" size="2" />
			<output>
				<port id="0" precision="FP16">
					<dim>1</dim>
				</port>
			</output>
		</layer>
		<layer id="156" name="Constant_1156" type="Convert" version="opset1">
			<data destination_type="f32" />
			<rt_info>
				<attribute name="decompression" version="0" />
			</rt_info>
			<input>
				<port id="0" precision="FP16">
					<dim>1</dim>
				</port>
			</input>
			<output>
				<port id="1" precision="FP32">
					<dim>1</dim>
				</port>
			</output>
		</layer>
		<layer id="157" name="/body/body.0/rdb3/lrelu_2/LeakyRelu" type="PReLU" version="opset1">
			<input>
				<port id="0" precision="FP32">
					<dim>1</dim>
					<dim>32</dim>
					<dim>-1</dim>
					<dim>-1</dim>
				</port>
				<port id="1" precision="FP32">
					<dim>1</dim>
				</port>
			</input>
			<output>
				<port id="2" precision="FP32" names="/body/body.0/rdb3/lrelu_2/LeakyRelu_output_0">
					<dim>1</dim>
					<dim>32</dim>
					<dim>-1</dim>
					<dim>-1</dim>
				</port>
			</output>
		</layer>
		<layer id="158" name="/body/body.0/rdb3/Concat_2" type="Concat" version="opset1">
			<data axis="1" />
			<input>
				<port id="0" precision="FP32">
					<dim>1</dim>
					<dim>64</dim>
					<dim>-1</dim>
					<dim>-1</dim>
				</port>
				<port id="1" precision="FP32">
					<dim>1</dim>
					<dim>32</dim>
					<dim>-1</dim>
					<dim>-1</dim>
				</port>
				<port id="2" precision="FP32">
					<dim>1</dim>
					<dim>32</dim>
					<dim>-1</dim>
					<dim>-1</dim>
				</port>
				<port id="3" precision="FP32">
					<dim>1</dim>
					<dim>32</dim>
					<dim>-1</dim>
					<dim>-1</dim>
				</port>
			</input>
			<output>
				<port id="4" precision="FP32" names="/body/body.0/rdb3/Concat_2_output_0">
					<dim>1</dim>
					<dim>160</dim>
					<dim>-1</dim>
					<dim>-1</dim>
				</port>
			</output>
		</layer>
		<layer id="159" name="body.0.rdb3.conv4.weight_compressed" type="Const" version="opset1">
			<data element_type="f16" shape="32, 160, 3, 3" offset="1139370" size="92160" />
			<output>
				<port id="0" precision="FP16" names="body.0.rdb3.conv4.weight">
					<dim>32</dim>
					<dim>160</dim>
					<dim>3</dim>
					<dim>3</dim>
				</port>
			</output>
		</layer>
		<layer id="160" name="body.0.rdb3.conv4.weight" type="Convert" version="opset1">
			<data destination_type="f32" />
			<rt_info>
				<attribute name="decompression" version="0" />
			</rt_info>
			<input>
				<port id="0" precision="FP16">
					<dim>32</dim>
					<dim>160</dim>
					<dim>3</dim>
					<dim>3</dim>
				</port>
			</input>
			<output>
				<port id="1" precision="FP32">
					<dim>32</dim>
					<dim>160</dim>
					<dim>3</dim>
					<dim>3</dim>
				</port>
			</output>
		</layer>
		<layer id="161" name="/body/body.0/rdb3/conv4/Conv/WithoutBiases" type="Convolution" version="opset1">
			<data strides="1, 1" dilations="1, 1" pads_begin="1, 1" pads_end="1, 1" auto_pad="explicit" />
			<input>
				<port id="0" precision="FP32">
					<dim>1</dim>
					<dim>160</dim>
					<dim>-1</dim>
					<dim>-1</dim>
				</port>
				<port id="1" precision="FP32">
					<dim>32</dim>
					<dim>160</dim>
					<dim>3</dim>
					<dim>3</dim>
				</port>
			</input>
			<output>
				<port id="2" precision="FP32">
					<dim>1</dim>
					<dim>32</dim>
					<dim>-1</dim>
					<dim>-1</dim>
				</port>
			</output>
		</layer>
		<layer id="162" name="Reshape_1170_compressed" type="Const" version="opset1">
			<data element_type="f16" shape="1, 32, 1, 1" offset="1231530" size="64" />
			<output>
				<port id="0" precision="FP16">
					<dim>1</dim>
					<dim>32</dim>
					<dim>1</dim>
					<dim>1</dim>
				</port>
			</output>
		</layer>
		<layer id="163" name="Reshape_1170" type="Convert" version="opset1">
			<data destination_type="f32" />
			<rt_info>
				<attribute name="decompression" version="0" />
			</rt_info>
			<input>
				<port id="0" precision="FP16">
					<dim>1</dim>
					<dim>32</dim>
					<dim>1</dim>
					<dim>1</dim>
				</port>
			</input>
			<output>
				<port id="1" precision="FP32">
					<dim>1</dim>
					<dim>32</dim>
					<dim>1</dim>
					<dim>1</dim>
				</port>
			</output>
		</layer>
		<layer id="164" name="/body/body.0/rdb3/conv4/Conv" type="Add" version="opset1">
			<data auto_broadcast="numpy" />
			<input>
				<port id="0" precision="FP32">
					<dim>1</dim>
					<dim>32</dim>
					<dim>-1</dim>
					<dim>-1</dim>
				</port>
				<port id="1" precision="FP32">
					<dim>1</dim>
					<dim>32</dim>
					<dim>1</dim>
					<dim>1</dim>
				</port>
			</input>
			<output>
				<port id="2" precision="FP32" names="/body/body.0/rdb3/conv4/Conv_output_0">
					<dim>1</dim>
					<dim>32</dim>
					<dim>-1</dim>
					<dim>-1</dim>
				</port>
			</output>
		</layer>
		<layer id="165" name="Constant_1172_compressed" type="Const" version="opset1">
			<data element_type="f16" shape="1" offset="50984" size="2" />
			<output>
				<port id="0" precision="FP16">
					<dim>1</dim>
				</port>
			</output>
		</layer>
		<layer id="166" name="Constant_1172" type="Convert" version="opset1">
			<data destination_type="f32" />
			<rt_info>
				<attribute name="decompression" version="0" />
			</rt_info>
			<input>
				<port id="0" precision="FP16">
					<dim>1</dim>
				</port>
			</input>
			<output>
				<port id="1" precision="FP32">
					<dim>1</dim>
				</port>
			</output>
		</layer>
		<layer id="167" name="/body/body.0/rdb3/lrelu_3/LeakyRelu" type="PReLU" version="opset1">
			<input>
				<port id="0" precision="FP32">
					<dim>1</dim>
					<dim>32</dim>
					<dim>-1</dim>
					<dim>-1</dim>
				</port>
				<port id="1" precision="FP32">
					<dim>1</dim>
				</port>
			</input>
			<output>
				<port id="2" precision="FP32" names="/body/body.0/rdb3/lrelu_3/LeakyRelu_output_0">
					<dim>1</dim>
					<dim>32</dim>
					<dim>-1</dim>
					<dim>-1</dim>
				</port>
			</output>
		</layer>
		<layer id="168" name="/body/body.0/rdb3/Concat_3" type="Concat" version="opset1">
			<data axis="1" />
			<input>
				<port id="0" precision="FP32">
					<dim>1</dim>
					<dim>64</dim>
					<dim>-1</dim>
					<dim>-1</dim>
				</port>
				<port id="1" precision="FP32">
					<dim>1</dim>
					<dim>32</dim>
					<dim>-1</dim>
					<dim>-1</dim>
				</port>
				<port id="2" precision="FP32">
					<dim>1</dim>
					<dim>32</dim>
					<dim>-1</dim>
					<dim>-1</dim>
				</port>
				<port id="3" precision="FP32">
					<dim>1</dim>
					<dim>32</dim>
					<dim>-1</dim>
					<dim>-1</dim>
				</port>
				<port id="4" precision="FP32">
					<dim>1</dim>
					<dim>32</dim>
					<dim>-1</dim>
					<dim>-1</dim>
				</port>
			</input>
			<output>
				<port id="5" precision="FP32" names="/body/body.0/rdb3/Concat_3_output_0">
					<dim>1</dim>
					<dim>192</dim>
					<dim>-1</dim>
					<dim>-1</dim>
				</port>
			</output>
		</layer>
		<layer id="169" name="Multiply_14057_compressed" type="Const" version="opset1">
			<data element_type="f16" shape="64, 192, 3, 3" offset="1231594" size="221184" />
			<output>
				<port id="0" precision="FP16">
					<dim>64</dim>
					<dim>192</dim>
					<dim>3</dim>
					<dim>3</dim>
				</port>
			</output>
		</layer>
		<layer id="170" name="Multiply_14057" type="Convert" version="opset1">
			<data destination_type="f32" />
			<rt_info>
				<attribute name="decompression" version="0" />
			</rt_info>
			<input>
				<port id="0" precision="FP16">
					<dim>64</dim>
					<dim>192</dim>
					<dim>3</dim>
					<dim>3</dim>
				</port>
			</input>
			<output>
				<port id="1" precision="FP32">
					<dim>64</dim>
					<dim>192</dim>
					<dim>3</dim>
					<dim>3</dim>
				</port>
			</output>
		</layer>
		<layer id="171" name="Multiply_13785" type="Convolution" version="opset1">
			<data strides="1, 1" dilations="1, 1" pads_begin="1, 1" pads_end="1, 1" auto_pad="explicit" />
			<input>
				<port id="0" precision="FP32">
					<dim>1</dim>
					<dim>192</dim>
					<dim>-1</dim>
					<dim>-1</dim>
				</port>
				<port id="1" precision="FP32">
					<dim>64</dim>
					<dim>192</dim>
					<dim>3</dim>
					<dim>3</dim>
				</port>
			</input>
			<output>
				<port id="2" precision="FP32">
					<dim>1</dim>
					<dim>64</dim>
					<dim>-1</dim>
					<dim>-1</dim>
				</port>
			</output>
		</layer>
		<layer id="172" name="Constant_13787_compressed" type="Const" version="opset1">
			<data element_type="f16" shape="1, 64, 1, 1" offset="1452778" size="128" />
			<output>
				<port id="0" precision="FP16">
					<dim>1</dim>
					<dim>64</dim>
					<dim>1</dim>
					<dim>1</dim>
				</port>
			</output>
		</layer>
		<layer id="173" name="Constant_13787" type="Convert" version="opset1">
			<data destination_type="f32" />
			<rt_info>
				<attribute name="decompression" version="0" />
			</rt_info>
			<input>
				<port id="0" precision="FP16">
					<dim>1</dim>
					<dim>64</dim>
					<dim>1</dim>
					<dim>1</dim>
				</port>
			</input>
			<output>
				<port id="1" precision="FP32">
					<dim>1</dim>
					<dim>64</dim>
					<dim>1</dim>
					<dim>1</dim>
				</port>
			</output>
		</layer>
		<layer id="174" name="/body/body.0/rdb3/Mul" type="Add" version="opset1">
			<data auto_broadcast="numpy" />
			<input>
				<port id="0" precision="FP32">
					<dim>1</dim>
					<dim>64</dim>
					<dim>-1</dim>
					<dim>-1</dim>
				</port>
				<port id="1" precision="FP32">
					<dim>1</dim>
					<dim>64</dim>
					<dim>1</dim>
					<dim>1</dim>
				</port>
			</input>
			<output>
				<port id="2" precision="FP32" names="/body/body.0/rdb3/Mul_output_0">
					<dim>1</dim>
					<dim>64</dim>
					<dim>-1</dim>
					<dim>-1</dim>
				</port>
			</output>
		</layer>
		<layer id="175" name="/body/body.0/rdb3/Add" type="Add" version="opset1">
			<data auto_broadcast="numpy" />
			<input>
				<port id="0" precision="FP32">
					<dim>1</dim>
					<dim>64</dim>
					<dim>-1</dim>
					<dim>-1</dim>
				</port>
				<port id="1" precision="FP32">
					<dim>1</dim>
					<dim>64</dim>
					<dim>-1</dim>
					<dim>-1</dim>
				</port>
			</input>
			<output>
				<port id="2" precision="FP32" names="/body/body.0/rdb3/Add_output_0">
					<dim>1</dim>
					<dim>64</dim>
					<dim>-1</dim>
					<dim>-1</dim>
				</port>
			</output>
		</layer>
		<layer id="176" name="Constant_14282_compressed" type="Const" version="opset1">
			<data element_type="f16" shape="1, 1, 1, 1" offset="50984" size="2" />
			<output>
				<port id="0" precision="FP16">
					<dim>1</dim>
					<dim>1</dim>
					<dim>1</dim>
					<dim>1</dim>
				</port>
			</output>
		</layer>
		<layer id="177" name="Constant_14282" type="Convert" version="opset1">
			<data destination_type="f32" />
			<rt_info>
				<attribute name="decompression" version="0" />
			</rt_info>
			<input>
				<port id="0" precision="FP16">
					<dim>1</dim>
					<dim>1</dim>
					<dim>1</dim>
					<dim>1</dim>
				</port>
			</input>
			<output>
				<port id="1" precision="FP32">
					<dim>1</dim>
					<dim>1</dim>
					<dim>1</dim>
					<dim>1</dim>
				</port>
			</output>
		</layer>
		<layer id="178" name="/body/body.0/Mul" type="Multiply" version="opset1">
			<data auto_broadcast="numpy" />
			<input>
				<port id="0" precision="FP32">
					<dim>1</dim>
					<dim>64</dim>
					<dim>-1</dim>
					<dim>-1</dim>
				</port>
				<port id="1" precision="FP32">
					<dim>1</dim>
					<dim>1</dim>
					<dim>1</dim>
					<dim>1</dim>
				</port>
			</input>
			<output>
				<port id="2" precision="FP32" names="/body/body.0/Mul_output_0">
					<dim>1</dim>
					<dim>64</dim>
					<dim>-1</dim>
					<dim>-1</dim>
				</port>
			</output>
		</layer>
		<layer id="179" name="/body/body.0/Add" type="Add" version="opset1">
			<data auto_broadcast="numpy" />
			<input>
				<port id="0" precision="FP32">
					<dim>1</dim>
					<dim>64</dim>
					<dim>-1</dim>
					<dim>-1</dim>
				</port>
				<port id="1" precision="FP32">
					<dim>1</dim>
					<dim>64</dim>
					<dim>-1</dim>
					<dim>-1</dim>
				</port>
			</input>
			<output>
				<port id="2" precision="FP32" names="/body/body.0/Add_output_0">
					<dim>1</dim>
					<dim>64</dim>
					<dim>-1</dim>
					<dim>-1</dim>
				</port>
			</output>
		</layer>
		<layer id="180" name="body.1.rdb1.conv1.weight_compressed" type="Const" version="opset1">
			<data element_type="f16" shape="32, 64, 3, 3" offset="1452906" size="36864" />
			<output>
				<port id="0" precision="FP16" names="body.1.rdb1.conv1.weight">
					<dim>32</dim>
					<dim>64</dim>
					<dim>3</dim>
					<dim>3</dim>
				</port>
			</output>
		</layer>
		<layer id="181" name="body.1.rdb1.conv1.weight" type="Convert" version="opset1">
			<data destination_type="f32" />
			<rt_info>
				<attribute name="decompression" version="0" />
			</rt_info>
			<input>
				<port id="0" precision="FP16">
					<dim>32</dim>
					<dim>64</dim>
					<dim>3</dim>
					<dim>3</dim>
				</port>
			</input>
			<output>
				<port id="1" precision="FP32">
					<dim>32</dim>
					<dim>64</dim>
					<dim>3</dim>
					<dim>3</dim>
				</port>
			</output>
		</layer>
		<layer id="182" name="/body/body.1/rdb1/conv1/Conv/WithoutBiases" type="Convolution" version="opset1">
			<data strides="1, 1" dilations="1, 1" pads_begin="1, 1" pads_end="1, 1" auto_pad="explicit" />
			<input>
				<port id="0" precision="FP32">
					<dim>1</dim>
					<dim>64</dim>
					<dim>-1</dim>
					<dim>-1</dim>
				</port>
				<port id="1" precision="FP32">
					<dim>32</dim>
					<dim>64</dim>
					<dim>3</dim>
					<dim>3</dim>
				</port>
			</input>
			<output>
				<port id="2" precision="FP32">
					<dim>1</dim>
					<dim>32</dim>
					<dim>-1</dim>
					<dim>-1</dim>
				</port>
			</output>
		</layer>
		<layer id="183" name="Reshape_1205_compressed" type="Const" version="opset1">
			<data element_type="f16" shape="1, 32, 1, 1" offset="1489770" size="64" />
			<output>
				<port id="0" precision="FP16">
					<dim>1</dim>
					<dim>32</dim>
					<dim>1</dim>
					<dim>1</dim>
				</port>
			</output>
		</layer>
		<layer id="184" name="Reshape_1205" type="Convert" version="opset1">
			<data destination_type="f32" />
			<rt_info>
				<attribute name="decompression" version="0" />
			</rt_info>
			<input>
				<port id="0" precision="FP16">
					<dim>1</dim>
					<dim>32</dim>
					<dim>1</dim>
					<dim>1</dim>
				</port>
			</input>
			<output>
				<port id="1" precision="FP32">
					<dim>1</dim>
					<dim>32</dim>
					<dim>1</dim>
					<dim>1</dim>
				</port>
			</output>
		</layer>
		<layer id="185" name="/body/body.1/rdb1/conv1/Conv" type="Add" version="opset1">
			<data auto_broadcast="numpy" />
			<input>
				<port id="0" precision="FP32">
					<dim>1</dim>
					<dim>32</dim>
					<dim>-1</dim>
					<dim>-1</dim>
				</port>
				<port id="1" precision="FP32">
					<dim>1</dim>
					<dim>32</dim>
					<dim>1</dim>
					<dim>1</dim>
				</port>
			</input>
			<output>
				<port id="2" precision="FP32" names="/body/body.1/rdb1/conv1/Conv_output_0">
					<dim>1</dim>
					<dim>32</dim>
					<dim>-1</dim>
					<dim>-1</dim>
				</port>
			</output>
		</layer>
		<layer id="186" name="Constant_1207_compressed" type="Const" version="opset1">
			<data element_type="f16" shape="1" offset="50984" size="2" />
			<output>
				<port id="0" precision="FP16">
					<dim>1</dim>
				</port>
			</output>
		</layer>
		<layer id="187" name="Constant_1207" type="Convert" version="opset1">
			<data destination_type="f32" />
			<rt_info>
				<attribute name="decompression" version="0" />
			</rt_info>
			<input>
				<port id="0" precision="FP16">
					<dim>1</dim>
				</port>
			</input>
			<output>
				<port id="1" precision="FP32">
					<dim>1</dim>
				</port>
			</output>
		</layer>
		<layer id="188" name="/body/body.1/rdb1/lrelu/LeakyRelu" type="PReLU" version="opset1">
			<input>
				<port id="0" precision="FP32">
					<dim>1</dim>
					<dim>32</dim>
					<dim>-1</dim>
					<dim>-1</dim>
				</port>
				<port id="1" precision="FP32">
					<dim>1</dim>
				</port>
			</input>
			<output>
				<port id="2" precision="FP32" names="/body/body.1/rdb1/lrelu/LeakyRelu_output_0">
					<dim>1</dim>
					<dim>32</dim>
					<dim>-1</dim>
					<dim>-1</dim>
				</port>
			</output>
		</layer>
		<layer id="189" name="/body/body.1/rdb1/Concat" type="Concat" version="opset1">
			<data axis="1" />
			<input>
				<port id="0" precision="FP32">
					<dim>1</dim>
					<dim>64</dim>
					<dim>-1</dim>
					<dim>-1</dim>
				</port>
				<port id="1" precision="FP32">
					<dim>1</dim>
					<dim>32</dim>
					<dim>-1</dim>
					<dim>-1</dim>
				</port>
			</input>
			<output>
				<port id="2" precision="FP32" names="/body/body.1/rdb1/Concat_output_0">
					<dim>1</dim>
					<dim>96</dim>
					<dim>-1</dim>
					<dim>-1</dim>
				</port>
			</output>
		</layer>
		<layer id="190" name="body.1.rdb1.conv2.weight_compressed" type="Const" version="opset1">
			<data element_type="f16" shape="32, 96, 3, 3" offset="1489834" size="55296" />
			<output>
				<port id="0" precision="FP16" names="body.1.rdb1.conv2.weight">
					<dim>32</dim>
					<dim>96</dim>
					<dim>3</dim>
					<dim>3</dim>
				</port>
			</output>
		</layer>
		<layer id="191" name="body.1.rdb1.conv2.weight" type="Convert" version="opset1">
			<data destination_type="f32" />
			<rt_info>
				<attribute name="decompression" version="0" />
			</rt_info>
			<input>
				<port id="0" precision="FP16">
					<dim>32</dim>
					<dim>96</dim>
					<dim>3</dim>
					<dim>3</dim>
				</port>
			</input>
			<output>
				<port id="1" precision="FP32">
					<dim>32</dim>
					<dim>96</dim>
					<dim>3</dim>
					<dim>3</dim>
				</port>
			</output>
		</layer>
		<layer id="192" name="/body/body.1/rdb1/conv2/Conv/WithoutBiases" type="Convolution" version="opset1">
			<data strides="1, 1" dilations="1, 1" pads_begin="1, 1" pads_end="1, 1" auto_pad="explicit" />
			<input>
				<port id="0" precision="FP32">
					<dim>1</dim>
					<dim>96</dim>
					<dim>-1</dim>
					<dim>-1</dim>
				</port>
				<port id="1" precision="FP32">
					<dim>32</dim>
					<dim>96</dim>
					<dim>3</dim>
					<dim>3</dim>
				</port>
			</input>
			<output>
				<port id="2" precision="FP32">
					<dim>1</dim>
					<dim>32</dim>
					<dim>-1</dim>
					<dim>-1</dim>
				</port>
			</output>
		</layer>
		<layer id="193" name="Reshape_1221_compressed" type="Const" version="opset1">
			<data element_type="f16" shape="1, 32, 1, 1" offset="1545130" size="64" />
			<output>
				<port id="0" precision="FP16">
					<dim>1</dim>
					<dim>32</dim>
					<dim>1</dim>
					<dim>1</dim>
				</port>
			</output>
		</layer>
		<layer id="194" name="Reshape_1221" type="Convert" version="opset1">
			<data destination_type="f32" />
			<rt_info>
				<attribute name="decompression" version="0" />
			</rt_info>
			<input>
				<port id="0" precision="FP16">
					<dim>1</dim>
					<dim>32</dim>
					<dim>1</dim>
					<dim>1</dim>
				</port>
			</input>
			<output>
				<port id="1" precision="FP32">
					<dim>1</dim>
					<dim>32</dim>
					<dim>1</dim>
					<dim>1</dim>
				</port>
			</output>
		</layer>
		<layer id="195" name="/body/body.1/rdb1/conv2/Conv" type="Add" version="opset1">
			<data auto_broadcast="numpy" />
			<input>
				<port id="0" precision="FP32">
					<dim>1</dim>
					<dim>32</dim>
					<dim>-1</dim>
					<dim>-1</dim>
				</port>
				<port id="1" precision="FP32">
					<dim>1</dim>
					<dim>32</dim>
					<dim>1</dim>
					<dim>1</dim>
				</port>
			</input>
			<output>
				<port id="2" precision="FP32" names="/body/body.1/rdb1/conv2/Conv_output_0">
					<dim>1</dim>
					<dim>32</dim>
					<dim>-1</dim>
					<dim>-1</dim>
				</port>
			</output>
		</layer>
		<layer id="196" name="Constant_1223_compressed" type="Const" version="opset1">
			<data element_type="f16" shape="1" offset="50984" size="2" />
			<output>
				<port id="0" precision="FP16">
					<dim>1</dim>
				</port>
			</output>
		</layer>
		<layer id="197" name="Constant_1223" type="Convert" version="opset1">
			<data destination_type="f32" />
			<rt_info>
				<attribute name="decompression" version="0" />
			</rt_info>
			<input>
				<port id="0" precision="FP16">
					<dim>1</dim>
				</port>
			</input>
			<output>
				<port id="1" precision="FP32">
					<dim>1</dim>
				</port>
			</output>
		</layer>
		<layer id="198" name="/body/body.1/rdb1/lrelu_1/LeakyRelu" type="PReLU" version="opset1">
			<input>
				<port id="0" precision="FP32">
					<dim>1</dim>
					<dim>32</dim>
					<dim>-1</dim>
					<dim>-1</dim>
				</port>
				<port id="1" precision="FP32">
					<dim>1</dim>
				</port>
			</input>
			<output>
				<port id="2" precision="FP32" names="/body/body.1/rdb1/lrelu_1/LeakyRelu_output_0">
					<dim>1</dim>
					<dim>32</dim>
					<dim>-1</dim>
					<dim>-1</dim>
				</port>
			</output>
		</layer>
		<layer id="199" name="/body/body.1/rdb1/Concat_1" type="Concat" version="opset1">
			<data axis="1" />
			<input>
				<port id="0" precision="FP32">
					<dim>1</dim>
					<dim>64</dim>
					<dim>-1</dim>
					<dim>-1</dim>
				</port>
				<port id="1" precision="FP32">
					<dim>1</dim>
					<dim>32</dim>
					<dim>-1</dim>
					<dim>-1</dim>
				</port>
				<port id="2" precision="FP32">
					<dim>1</dim>
					<dim>32</dim>
					<dim>-1</dim>
					<dim>-1</dim>
				</port>
			</input>
			<output>
				<port id="3" precision="FP32" names="/body/body.1/rdb1/Concat_1_output_0">
					<dim>1</dim>
					<dim>128</dim>
					<dim>-1</dim>
					<dim>-1</dim>
				</port>
			</output>
		</layer>
		<layer id="200" name="body.1.rdb1.conv3.weight_compressed" type="Const" version="opset1">
			<data element_type="f16" shape="32, 128, 3, 3" offset="1545194" size="73728" />
			<output>
				<port id="0" precision="FP16" names="body.1.rdb1.conv3.weight">
					<dim>32</dim>
					<dim>128</dim>
					<dim>3</dim>
					<dim>3</dim>
				</port>
			</output>
		</layer>
		<layer id="201" name="body.1.rdb1.conv3.weight" type="Convert" version="opset1">
			<data destination_type="f32" />
			<rt_info>
				<attribute name="decompression" version="0" />
			</rt_info>
			<input>
				<port id="0" precision="FP16">
					<dim>32</dim>
					<dim>128</dim>
					<dim>3</dim>
					<dim>3</dim>
				</port>
			</input>
			<output>
				<port id="1" precision="FP32">
					<dim>32</dim>
					<dim>128</dim>
					<dim>3</dim>
					<dim>3</dim>
				</port>
			</output>
		</layer>
		<layer id="202" name="/body/body.1/rdb1/conv3/Conv/WithoutBiases" type="Convolution" version="opset1">
			<data strides="1, 1" dilations="1, 1" pads_begin="1, 1" pads_end="1, 1" auto_pad="explicit" />
			<input>
				<port id="0" precision="FP32">
					<dim>1</dim>
					<dim>128</dim>
					<dim>-1</dim>
					<dim>-1</dim>
				</port>
				<port id="1" precision="FP32">
					<dim>32</dim>
					<dim>128</dim>
					<dim>3</dim>
					<dim>3</dim>
				</port>
			</input>
			<output>
				<port id="2" precision="FP32">
					<dim>1</dim>
					<dim>32</dim>
					<dim>-1</dim>
					<dim>-1</dim>
				</port>
			</output>
		</layer>
		<layer id="203" name="Reshape_1237_compressed" type="Const" version="opset1">
			<data element_type="f16" shape="1, 32, 1, 1" offset="1618922" size="64" />
			<output>
				<port id="0" precision="FP16">
					<dim>1</dim>
					<dim>32</dim>
					<dim>1</dim>
					<dim>1</dim>
				</port>
			</output>
		</layer>
		<layer id="204" name="Reshape_1237" type="Convert" version="opset1">
			<data destination_type="f32" />
			<rt_info>
				<attribute name="decompression" version="0" />
			</rt_info>
			<input>
				<port id="0" precision="FP16">
					<dim>1</dim>
					<dim>32</dim>
					<dim>1</dim>
					<dim>1</dim>
				</port>
			</input>
			<output>
				<port id="1" precision="FP32">
					<dim>1</dim>
					<dim>32</dim>
					<dim>1</dim>
					<dim>1</dim>
				</port>
			</output>
		</layer>
		<layer id="205" name="/body/body.1/rdb1/conv3/Conv" type="Add" version="opset1">
			<data auto_broadcast="numpy" />
			<input>
				<port id="0" precision="FP32">
					<dim>1</dim>
					<dim>32</dim>
					<dim>-1</dim>
					<dim>-1</dim>
				</port>
				<port id="1" precision="FP32">
					<dim>1</dim>
					<dim>32</dim>
					<dim>1</dim>
					<dim>1</dim>
				</port>
			</input>
			<output>
				<port id="2" precision="FP32" names="/body/body.1/rdb1/conv3/Conv_output_0">
					<dim>1</dim>
					<dim>32</dim>
					<dim>-1</dim>
					<dim>-1</dim>
				</port>
			</output>
		</layer>
		<layer id="206" name="Constant_1239_compressed" type="Const" version="opset1">
			<data element_type="f16" shape="1" offset="50984" size="2" />
			<output>
				<port id="0" precision="FP16">
					<dim>1</dim>
				</port>
			</output>
		</layer>
		<layer id="207" name="Constant_1239" type="Convert" version="opset1">
			<data destination_type="f32" />
			<rt_info>
				<attribute name="decompression" version="0" />
			</rt_info>
			<input>
				<port id="0" precision="FP16">
					<dim>1</dim>
				</port>
			</input>
			<output>
				<port id="1" precision="FP32">
					<dim>1</dim>
				</port>
			</output>
		</layer>
		<layer id="208" name="/body/body.1/rdb1/lrelu_2/LeakyRelu" type="PReLU" version="opset1">
			<input>
				<port id="0" precision="FP32">
					<dim>1</dim>
					<dim>32</dim>
					<dim>-1</dim>
					<dim>-1</dim>
				</port>
				<port id="1" precision="FP32">
					<dim>1</dim>
				</port>
			</input>
			<output>
				<port id="2" precision="FP32" names="/body/body.1/rdb1/lrelu_2/LeakyRelu_output_0">
					<dim>1</dim>
					<dim>32</dim>
					<dim>-1</dim>
					<dim>-1</dim>
				</port>
			</output>
		</layer>
		<layer id="209" name="/body/body.1/rdb1/Concat_2" type="Concat" version="opset1">
			<data axis="1" />
			<input>
				<port id="0" precision="FP32">
					<dim>1</dim>
					<dim>64</dim>
					<dim>-1</dim>
					<dim>-1</dim>
				</port>
				<port id="1" precision="FP32">
					<dim>1</dim>
					<dim>32</dim>
					<dim>-1</dim>
					<dim>-1</dim>
				</port>
				<port id="2" precision="FP32">
					<dim>1</dim>
					<dim>32</dim>
					<dim>-1</dim>
					<dim>-1</dim>
				</port>
				<port id="3" precision="FP32">
					<dim>1</dim>
					<dim>32</dim>
					<dim>-1</dim>
					<dim>-1</dim>
				</port>
			</input>
			<output>
				<port id="4" precision="FP32" names="/body/body.1/rdb1/Concat_2_output_0">
					<dim>1</dim>
					<dim>160</dim>
					<dim>-1</dim>
					<dim>-1</dim>
				</port>
			</output>
		</layer>
		<layer id="210" name="body.1.rdb1.conv4.weight_compressed" type="Const" version="opset1">
			<data element_type="f16" shape="32, 160, 3, 3" offset="1618986" size="92160" />
			<output>
				<port id="0" precision="FP16" names="body.1.rdb1.conv4.weight">
					<dim>32</dim>
					<dim>160</dim>
					<dim>3</dim>
					<dim>3</dim>
				</port>
			</output>
		</layer>
		<layer id="211" name="body.1.rdb1.conv4.weight" type="Convert" version="opset1">
			<data destination_type="f32" />
			<rt_info>
				<attribute name="decompression" version="0" />
			</rt_info>
			<input>
				<port id="0" precision="FP16">
					<dim>32</dim>
					<dim>160</dim>
					<dim>3</dim>
					<dim>3</dim>
				</port>
			</input>
			<output>
				<port id="1" precision="FP32">
					<dim>32</dim>
					<dim>160</dim>
					<dim>3</dim>
					<dim>3</dim>
				</port>
			</output>
		</layer>
		<layer id="212" name="/body/body.1/rdb1/conv4/Conv/WithoutBiases" type="Convolution" version="opset1">
			<data strides="1, 1" dilations="1, 1" pads_begin="1, 1" pads_end="1, 1" auto_pad="explicit" />
			<input>
				<port id="0" precision="FP32">
					<dim>1</dim>
					<dim>160</dim>
					<dim>-1</dim>
					<dim>-1</dim>
				</port>
				<port id="1" precision="FP32">
					<dim>32</dim>
					<dim>160</dim>
					<dim>3</dim>
					<dim>3</dim>
				</port>
			</input>
			<output>
				<port id="2" precision="FP32">
					<dim>1</dim>
					<dim>32</dim>
					<dim>-1</dim>
					<dim>-1</dim>
				</port>
			</output>
		</layer>
		<layer id="213" name="Reshape_1253_compressed" type="Const" version="opset1">
			<data element_type="f16" shape="1, 32, 1, 1" offset="1711146" size="64" />
			<output>
				<port id="0" precision="FP16">
					<dim>1</dim>
					<dim>32</dim>
					<dim>1</dim>
					<dim>1</dim>
				</port>
			</output>
		</layer>
		<layer id="214" name="Reshape_1253" type="Convert" version="opset1">
			<data destination_type="f32" />
			<rt_info>
				<attribute name="decompression" version="0" />
			</rt_info>
			<input>
				<port id="0" precision="FP16">
					<dim>1</dim>
					<dim>32</dim>
					<dim>1</dim>
					<dim>1</dim>
				</port>
			</input>
			<output>
				<port id="1" precision="FP32">
					<dim>1</dim>
					<dim>32</dim>
					<dim>1</dim>
					<dim>1</dim>
				</port>
			</output>
		</layer>
		<layer id="215" name="/body/body.1/rdb1/conv4/Conv" type="Add" version="opset1">
			<data auto_broadcast="numpy" />
			<input>
				<port id="0" precision="FP32">
					<dim>1</dim>
					<dim>32</dim>
					<dim>-1</dim>
					<dim>-1</dim>
				</port>
				<port id="1" precision="FP32">
					<dim>1</dim>
					<dim>32</dim>
					<dim>1</dim>
					<dim>1</dim>
				</port>
			</input>
			<output>
				<port id="2" precision="FP32" names="/body/body.1/rdb1/conv4/Conv_output_0">
					<dim>1</dim>
					<dim>32</dim>
					<dim>-1</dim>
					<dim>-1</dim>
				</port>
			</output>
		</layer>
		<layer id="216" name="Constant_1255_compressed" type="Const" version="opset1">
			<data element_type="f16" shape="1" offset="50984" size="2" />
			<output>
				<port id="0" precision="FP16">
					<dim>1</dim>
				</port>
			</output>
		</layer>
		<layer id="217" name="Constant_1255" type="Convert" version="opset1">
			<data destination_type="f32" />
			<rt_info>
				<attribute name="decompression" version="0" />
			</rt_info>
			<input>
				<port id="0" precision="FP16">
					<dim>1</dim>
				</port>
			</input>
			<output>
				<port id="1" precision="FP32">
					<dim>1</dim>
				</port>
			</output>
		</layer>
		<layer id="218" name="/body/body.1/rdb1/lrelu_3/LeakyRelu" type="PReLU" version="opset1">
			<input>
				<port id="0" precision="FP32">
					<dim>1</dim>
					<dim>32</dim>
					<dim>-1</dim>
					<dim>-1</dim>
				</port>
				<port id="1" precision="FP32">
					<dim>1</dim>
				</port>
			</input>
			<output>
				<port id="2" precision="FP32" names="/body/body.1/rdb1/lrelu_3/LeakyRelu_output_0">
					<dim>1</dim>
					<dim>32</dim>
					<dim>-1</dim>
					<dim>-1</dim>
				</port>
			</output>
		</layer>
		<layer id="219" name="/body/body.1/rdb1/Concat_3" type="Concat" version="opset1">
			<data axis="1" />
			<input>
				<port id="0" precision="FP32">
					<dim>1</dim>
					<dim>64</dim>
					<dim>-1</dim>
					<dim>-1</dim>
				</port>
				<port id="1" precision="FP32">
					<dim>1</dim>
					<dim>32</dim>
					<dim>-1</dim>
					<dim>-1</dim>
				</port>
				<port id="2" precision="FP32">
					<dim>1</dim>
					<dim>32</dim>
					<dim>-1</dim>
					<dim>-1</dim>
				</port>
				<port id="3" precision="FP32">
					<dim>1</dim>
					<dim>32</dim>
					<dim>-1</dim>
					<dim>-1</dim>
				</port>
				<port id="4" precision="FP32">
					<dim>1</dim>
					<dim>32</dim>
					<dim>-1</dim>
					<dim>-1</dim>
				</port>
			</input>
			<output>
				<port id="5" precision="FP32" names="/body/body.1/rdb1/Concat_3_output_0">
					<dim>1</dim>
					<dim>192</dim>
					<dim>-1</dim>
					<dim>-1</dim>
				</port>
			</output>
		</layer>
		<layer id="220" name="Multiply_14059_compressed" type="Const" version="opset1">
			<data element_type="f16" shape="64, 192, 3, 3" offset="1711210" size="221184" />
			<output>
				<port id="0" precision="FP16">
					<dim>64</dim>
					<dim>192</dim>
					<dim>3</dim>
					<dim>3</dim>
				</port>
			</output>
		</layer>
		<layer id="221" name="Multiply_14059" type="Convert" version="opset1">
			<data destination_type="f32" />
			<rt_info>
				<attribute name="decompression" version="0" />
			</rt_info>
			<input>
				<port id="0" precision="FP16">
					<dim>64</dim>
					<dim>192</dim>
					<dim>3</dim>
					<dim>3</dim>
				</port>
			</input>
			<output>
				<port id="1" precision="FP32">
					<dim>64</dim>
					<dim>192</dim>
					<dim>3</dim>
					<dim>3</dim>
				</port>
			</output>
		</layer>
		<layer id="222" name="Multiply_13789" type="Convolution" version="opset1">
			<data strides="1, 1" dilations="1, 1" pads_begin="1, 1" pads_end="1, 1" auto_pad="explicit" />
			<input>
				<port id="0" precision="FP32">
					<dim>1</dim>
					<dim>192</dim>
					<dim>-1</dim>
					<dim>-1</dim>
				</port>
				<port id="1" precision="FP32">
					<dim>64</dim>
					<dim>192</dim>
					<dim>3</dim>
					<dim>3</dim>
				</port>
			</input>
			<output>
				<port id="2" precision="FP32">
					<dim>1</dim>
					<dim>64</dim>
					<dim>-1</dim>
					<dim>-1</dim>
				</port>
			</output>
		</layer>
		<layer id="223" name="Constant_13791_compressed" type="Const" version="opset1">
			<data element_type="f16" shape="1, 64, 1, 1" offset="1932394" size="128" />
			<output>
				<port id="0" precision="FP16">
					<dim>1</dim>
					<dim>64</dim>
					<dim>1</dim>
					<dim>1</dim>
				</port>
			</output>
		</layer>
		<layer id="224" name="Constant_13791" type="Convert" version="opset1">
			<data destination_type="f32" />
			<rt_info>
				<attribute name="decompression" version="0" />
			</rt_info>
			<input>
				<port id="0" precision="FP16">
					<dim>1</dim>
					<dim>64</dim>
					<dim>1</dim>
					<dim>1</dim>
				</port>
			</input>
			<output>
				<port id="1" precision="FP32">
					<dim>1</dim>
					<dim>64</dim>
					<dim>1</dim>
					<dim>1</dim>
				</port>
			</output>
		</layer>
		<layer id="225" name="/body/body.1/rdb1/Mul" type="Add" version="opset1">
			<data auto_broadcast="numpy" />
			<input>
				<port id="0" precision="FP32">
					<dim>1</dim>
					<dim>64</dim>
					<dim>-1</dim>
					<dim>-1</dim>
				</port>
				<port id="1" precision="FP32">
					<dim>1</dim>
					<dim>64</dim>
					<dim>1</dim>
					<dim>1</dim>
				</port>
			</input>
			<output>
				<port id="2" precision="FP32" names="/body/body.1/rdb1/Mul_output_0">
					<dim>1</dim>
					<dim>64</dim>
					<dim>-1</dim>
					<dim>-1</dim>
				</port>
			</output>
		</layer>
		<layer id="226" name="/body/body.1/rdb1/Add" type="Add" version="opset1">
			<data auto_broadcast="numpy" />
			<input>
				<port id="0" precision="FP32">
					<dim>1</dim>
					<dim>64</dim>
					<dim>-1</dim>
					<dim>-1</dim>
				</port>
				<port id="1" precision="FP32">
					<dim>1</dim>
					<dim>64</dim>
					<dim>-1</dim>
					<dim>-1</dim>
				</port>
			</input>
			<output>
				<port id="2" precision="FP32" names="/body/body.1/rdb1/Add_output_0">
					<dim>1</dim>
					<dim>64</dim>
					<dim>-1</dim>
					<dim>-1</dim>
				</port>
			</output>
		</layer>
		<layer id="227" name="body.1.rdb2.conv1.weight_compressed" type="Const" version="opset1">
			<data element_type="f16" shape="32, 64, 3, 3" offset="1932522" size="36864" />
			<output>
				<port id="0" precision="FP16" names="body.1.rdb2.conv1.weight">
					<dim>32</dim>
					<dim>64</dim>
					<dim>3</dim>
					<dim>3</dim>
				</port>
			</output>
		</layer>
		<layer id="228" name="body.1.rdb2.conv1.weight" type="Convert" version="opset1">
			<data destination_type="f32" />
			<rt_info>
				<attribute name="decompression" version="0" />
			</rt_info>
			<input>
				<port id="0" precision="FP16">
					<dim>32</dim>
					<dim>64</dim>
					<dim>3</dim>
					<dim>3</dim>
				</port>
			</input>
			<output>
				<port id="1" precision="FP32">
					<dim>32</dim>
					<dim>64</dim>
					<dim>3</dim>
					<dim>3</dim>
				</port>
			</output>
		</layer>
		<layer id="229" name="/body/body.1/rdb2/conv1/Conv/WithoutBiases" type="Convolution" version="opset1">
			<data strides="1, 1" dilations="1, 1" pads_begin="1, 1" pads_end="1, 1" auto_pad="explicit" />
			<input>
				<port id="0" precision="FP32">
					<dim>1</dim>
					<dim>64</dim>
					<dim>-1</dim>
					<dim>-1</dim>
				</port>
				<port id="1" precision="FP32">
					<dim>32</dim>
					<dim>64</dim>
					<dim>3</dim>
					<dim>3</dim>
				</port>
			</input>
			<output>
				<port id="2" precision="FP32">
					<dim>1</dim>
					<dim>32</dim>
					<dim>-1</dim>
					<dim>-1</dim>
				</port>
			</output>
		</layer>
		<layer id="230" name="Reshape_1285_compressed" type="Const" version="opset1">
			<data element_type="f16" shape="1, 32, 1, 1" offset="1969386" size="64" />
			<output>
				<port id="0" precision="FP16">
					<dim>1</dim>
					<dim>32</dim>
					<dim>1</dim>
					<dim>1</dim>
				</port>
			</output>
		</layer>
		<layer id="231" name="Reshape_1285" type="Convert" version="opset1">
			<data destination_type="f32" />
			<rt_info>
				<attribute name="decompression" version="0" />
			</rt_info>
			<input>
				<port id="0" precision="FP16">
					<dim>1</dim>
					<dim>32</dim>
					<dim>1</dim>
					<dim>1</dim>
				</port>
			</input>
			<output>
				<port id="1" precision="FP32">
					<dim>1</dim>
					<dim>32</dim>
					<dim>1</dim>
					<dim>1</dim>
				</port>
			</output>
		</layer>
		<layer id="232" name="/body/body.1/rdb2/conv1/Conv" type="Add" version="opset1">
			<data auto_broadcast="numpy" />
			<input>
				<port id="0" precision="FP32">
					<dim>1</dim>
					<dim>32</dim>
					<dim>-1</dim>
					<dim>-1</dim>
				</port>
				<port id="1" precision="FP32">
					<dim>1</dim>
					<dim>32</dim>
					<dim>1</dim>
					<dim>1</dim>
				</port>
			</input>
			<output>
				<port id="2" precision="FP32" names="/body/body.1/rdb2/conv1/Conv_output_0">
					<dim>1</dim>
					<dim>32</dim>
					<dim>-1</dim>
					<dim>-1</dim>
				</port>
			</output>
		</layer>
		<layer id="233" name="Constant_1287_compressed" type="Const" version="opset1">
			<data element_type="f16" shape="1" offset="50984" size="2" />
			<output>
				<port id="0" precision="FP16">
					<dim>1</dim>
				</port>
			</output>
		</layer>
		<layer id="234" name="Constant_1287" type="Convert" version="opset1">
			<data destination_type="f32" />
			<rt_info>
				<attribute name="decompression" version="0" />
			</rt_info>
			<input>
				<port id="0" precision="FP16">
					<dim>1</dim>
				</port>
			</input>
			<output>
				<port id="1" precision="FP32">
					<dim>1</dim>
				</port>
			</output>
		</layer>
		<layer id="235" name="/body/body.1/rdb2/lrelu/LeakyRelu" type="PReLU" version="opset1">
			<input>
				<port id="0" precision="FP32">
					<dim>1</dim>
					<dim>32</dim>
					<dim>-1</dim>
					<dim>-1</dim>
				</port>
				<port id="1" precision="FP32">
					<dim>1</dim>
				</port>
			</input>
			<output>
				<port id="2" precision="FP32" names="/body/body.1/rdb2/lrelu/LeakyRelu_output_0">
					<dim>1</dim>
					<dim>32</dim>
					<dim>-1</dim>
					<dim>-1</dim>
				</port>
			</output>
		</layer>
		<layer id="236" name="/body/body.1/rdb2/Concat" type="Concat" version="opset1">
			<data axis="1" />
			<input>
				<port id="0" precision="FP32">
					<dim>1</dim>
					<dim>64</dim>
					<dim>-1</dim>
					<dim>-1</dim>
				</port>
				<port id="1" precision="FP32">
					<dim>1</dim>
					<dim>32</dim>
					<dim>-1</dim>
					<dim>-1</dim>
				</port>
			</input>
			<output>
				<port id="2" precision="FP32" names="/body/body.1/rdb2/Concat_output_0">
					<dim>1</dim>
					<dim>96</dim>
					<dim>-1</dim>
					<dim>-1</dim>
				</port>
			</output>
		</layer>
		<layer id="237" name="body.1.rdb2.conv2.weight_compressed" type="Const" version="opset1">
			<data element_type="f16" shape="32, 96, 3, 3" offset="1969450" size="55296" />
			<output>
				<port id="0" precision="FP16" names="body.1.rdb2.conv2.weight">
					<dim>32</dim>
					<dim>96</dim>
					<dim>3</dim>
					<dim>3</dim>
				</port>
			</output>
		</layer>
		<layer id="238" name="body.1.rdb2.conv2.weight" type="Convert" version="opset1">
			<data destination_type="f32" />
			<rt_info>
				<attribute name="decompression" version="0" />
			</rt_info>
			<input>
				<port id="0" precision="FP16">
					<dim>32</dim>
					<dim>96</dim>
					<dim>3</dim>
					<dim>3</dim>
				</port>
			</input>
			<output>
				<port id="1" precision="FP32">
					<dim>32</dim>
					<dim>96</dim>
					<dim>3</dim>
					<dim>3</dim>
				</port>
			</output>
		</layer>
		<layer id="239" name="/body/body.1/rdb2/conv2/Conv/WithoutBiases" type="Convolution" version="opset1">
			<data strides="1, 1" dilations="1, 1" pads_begin="1, 1" pads_end="1, 1" auto_pad="explicit" />
			<input>
				<port id="0" precision="FP32">
					<dim>1</dim>
					<dim>96</dim>
					<dim>-1</dim>
					<dim>-1</dim>
				</port>
				<port id="1" precision="FP32">
					<dim>32</dim>
					<dim>96</dim>
					<dim>3</dim>
					<dim>3</dim>
				</port>
			</input>
			<output>
				<port id="2" precision="FP32">
					<dim>1</dim>
					<dim>32</dim>
					<dim>-1</dim>
					<dim>-1</dim>
				</port>
			</output>
		</layer>
		<layer id="240" name="Reshape_1301_compressed" type="Const" version="opset1">
			<data element_type="f16" shape="1, 32, 1, 1" offset="2024746" size="64" />
			<output>
				<port id="0" precision="FP16">
					<dim>1</dim>
					<dim>32</dim>
					<dim>1</dim>
					<dim>1</dim>
				</port>
			</output>
		</layer>
		<layer id="241" name="Reshape_1301" type="Convert" version="opset1">
			<data destination_type="f32" />
			<rt_info>
				<attribute name="decompression" version="0" />
			</rt_info>
			<input>
				<port id="0" precision="FP16">
					<dim>1</dim>
					<dim>32</dim>
					<dim>1</dim>
					<dim>1</dim>
				</port>
			</input>
			<output>
				<port id="1" precision="FP32">
					<dim>1</dim>
					<dim>32</dim>
					<dim>1</dim>
					<dim>1</dim>
				</port>
			</output>
		</layer>
		<layer id="242" name="/body/body.1/rdb2/conv2/Conv" type="Add" version="opset1">
			<data auto_broadcast="numpy" />
			<input>
				<port id="0" precision="FP32">
					<dim>1</dim>
					<dim>32</dim>
					<dim>-1</dim>
					<dim>-1</dim>
				</port>
				<port id="1" precision="FP32">
					<dim>1</dim>
					<dim>32</dim>
					<dim>1</dim>
					<dim>1</dim>
				</port>
			</input>
			<output>
				<port id="2" precision="FP32" names="/body/body.1/rdb2/conv2/Conv_output_0">
					<dim>1</dim>
					<dim>32</dim>
					<dim>-1</dim>
					<dim>-1</dim>
				</port>
			</output>
		</layer>
		<layer id="243" name="Constant_1303_compressed" type="Const" version="opset1">
			<data element_type="f16" shape="1" offset="50984" size="2" />
			<output>
				<port id="0" precision="FP16">
					<dim>1</dim>
				</port>
			</output>
		</layer>
		<layer id="244" name="Constant_1303" type="Convert" version="opset1">
			<data destination_type="f32" />
			<rt_info>
				<attribute name="decompression" version="0" />
			</rt_info>
			<input>
				<port id="0" precision="FP16">
					<dim>1</dim>
				</port>
			</input>
			<output>
				<port id="1" precision="FP32">
					<dim>1</dim>
				</port>
			</output>
		</layer>
		<layer id="245" name="/body/body.1/rdb2/lrelu_1/LeakyRelu" type="PReLU" version="opset1">
			<input>
				<port id="0" precision="FP32">
					<dim>1</dim>
					<dim>32</dim>
					<dim>-1</dim>
					<dim>-1</dim>
				</port>
				<port id="1" precision="FP32">
					<dim>1</dim>
				</port>
			</input>
			<output>
				<port id="2" precision="FP32" names="/body/body.1/rdb2/lrelu_1/LeakyRelu_output_0">
					<dim>1</dim>
					<dim>32</dim>
					<dim>-1</dim>
					<dim>-1</dim>
				</port>
			</output>
		</layer>
		<layer id="246" name="/body/body.1/rdb2/Concat_1" type="Concat" version="opset1">
			<data axis="1" />
			<input>
				<port id="0" precision="FP32">
					<dim>1</dim>
					<dim>64</dim>
					<dim>-1</dim>
					<dim>-1</dim>
				</port>
				<port id="1" precision="FP32">
					<dim>1</dim>
					<dim>32</dim>
					<dim>-1</dim>
					<dim>-1</dim>
				</port>
				<port id="2" precision="FP32">
					<dim>1</dim>
					<dim>32</dim>
					<dim>-1</dim>
					<dim>-1</dim>
				</port>
			</input>
			<output>
				<port id="3" precision="FP32" names="/body/body.1/rdb2/Concat_1_output_0">
					<dim>1</dim>
					<dim>128</dim>
					<dim>-1</dim>
					<dim>-1</dim>
				</port>
			</output>
		</layer>
		<layer id="247" name="body.1.rdb2.conv3.weight_compressed" type="Const" version="opset1">
			<data element_type="f16" shape="32, 128, 3, 3" offset="2024810" size="73728" />
			<output>
				<port id="0" precision="FP16" names="body.1.rdb2.conv3.weight">
					<dim>32</dim>
					<dim>128</dim>
					<dim>3</dim>
					<dim>3</dim>
				</port>
			</output>
		</layer>
		<layer id="248" name="body.1.rdb2.conv3.weight" type="Convert" version="opset1">
			<data destination_type="f32" />
			<rt_info>
				<attribute name="decompression" version="0" />
			</rt_info>
			<input>
				<port id="0" precision="FP16">
					<dim>32</dim>
					<dim>128</dim>
					<dim>3</dim>
					<dim>3</dim>
				</port>
			</input>
			<output>
				<port id="1" precision="FP32">
					<dim>32</dim>
					<dim>128</dim>
					<dim>3</dim>
					<dim>3</dim>
				</port>
			</output>
		</layer>
		<layer id="249" name="/body/body.1/rdb2/conv3/Conv/WithoutBiases" type="Convolution" version="opset1">
			<data strides="1, 1" dilations="1, 1" pads_begin="1, 1" pads_end="1, 1" auto_pad="explicit" />
			<input>
				<port id="0" precision="FP32">
					<dim>1</dim>
					<dim>128</dim>
					<dim>-1</dim>
					<dim>-1</dim>
				</port>
				<port id="1" precision="FP32">
					<dim>32</dim>
					<dim>128</dim>
					<dim>3</dim>
					<dim>3</dim>
				</port>
			</input>
			<output>
				<port id="2" precision="FP32">
					<dim>1</dim>
					<dim>32</dim>
					<dim>-1</dim>
					<dim>-1</dim>
				</port>
			</output>
		</layer>
		<layer id="250" name="Reshape_1317_compressed" type="Const" version="opset1">
			<data element_type="f16" shape="1, 32, 1, 1" offset="2098538" size="64" />
			<output>
				<port id="0" precision="FP16">
					<dim>1</dim>
					<dim>32</dim>
					<dim>1</dim>
					<dim>1</dim>
				</port>
			</output>
		</layer>
		<layer id="251" name="Reshape_1317" type="Convert" version="opset1">
			<data destination_type="f32" />
			<rt_info>
				<attribute name="decompression" version="0" />
			</rt_info>
			<input>
				<port id="0" precision="FP16">
					<dim>1</dim>
					<dim>32</dim>
					<dim>1</dim>
					<dim>1</dim>
				</port>
			</input>
			<output>
				<port id="1" precision="FP32">
					<dim>1</dim>
					<dim>32</dim>
					<dim>1</dim>
					<dim>1</dim>
				</port>
			</output>
		</layer>
		<layer id="252" name="/body/body.1/rdb2/conv3/Conv" type="Add" version="opset1">
			<data auto_broadcast="numpy" />
			<input>
				<port id="0" precision="FP32">
					<dim>1</dim>
					<dim>32</dim>
					<dim>-1</dim>
					<dim>-1</dim>
				</port>
				<port id="1" precision="FP32">
					<dim>1</dim>
					<dim>32</dim>
					<dim>1</dim>
					<dim>1</dim>
				</port>
			</input>
			<output>
				<port id="2" precision="FP32" names="/body/body.1/rdb2/conv3/Conv_output_0">
					<dim>1</dim>
					<dim>32</dim>
					<dim>-1</dim>
					<dim>-1</dim>
				</port>
			</output>
		</layer>
		<layer id="253" name="Constant_1319_compressed" type="Const" version="opset1">
			<data element_type="f16" shape="1" offset="50984" size="2" />
			<output>
				<port id="0" precision="FP16">
					<dim>1</dim>
				</port>
			</output>
		</layer>
		<layer id="254" name="Constant_1319" type="Convert" version="opset1">
			<data destination_type="f32" />
			<rt_info>
				<attribute name="decompression" version="0" />
			</rt_info>
			<input>
				<port id="0" precision="FP16">
					<dim>1</dim>
				</port>
			</input>
			<output>
				<port id="1" precision="FP32">
					<dim>1</dim>
				</port>
			</output>
		</layer>
		<layer id="255" name="/body/body.1/rdb2/lrelu_2/LeakyRelu" type="PReLU" version="opset1">
			<input>
				<port id="0" precision="FP32">
					<dim>1</dim>
					<dim>32</dim>
					<dim>-1</dim>
					<dim>-1</dim>
				</port>
				<port id="1" precision="FP32">
					<dim>1</dim>
				</port>
			</input>
			<output>
				<port id="2" precision="FP32" names="/body/body.1/rdb2/lrelu_2/LeakyRelu_output_0">
					<dim>1</dim>
					<dim>32</dim>
					<dim>-1</dim>
					<dim>-1</dim>
				</port>
			</output>
		</layer>
		<layer id="256" name="/body/body.1/rdb2/Concat_2" type="Concat" version="opset1">
			<data axis="1" />
			<input>
				<port id="0" precision="FP32">
					<dim>1</dim>
					<dim>64</dim>
					<dim>-1</dim>
					<dim>-1</dim>
				</port>
				<port id="1" precision="FP32">
					<dim>1</dim>
					<dim>32</dim>
					<dim>-1</dim>
					<dim>-1</dim>
				</port>
				<port id="2" precision="FP32">
					<dim>1</dim>
					<dim>32</dim>
					<dim>-1</dim>
					<dim>-1</dim>
				</port>
				<port id="3" precision="FP32">
					<dim>1</dim>
					<dim>32</dim>
					<dim>-1</dim>
					<dim>-1</dim>
				</port>
			</input>
			<output>
				<port id="4" precision="FP32" names="/body/body.1/rdb2/Concat_2_output_0">
					<dim>1</dim>
					<dim>160</dim>
					<dim>-1</dim>
					<dim>-1</dim>
				</port>
			</output>
		</layer>
		<layer id="257" name="body.1.rdb2.conv4.weight_compressed" type="Const" version="opset1">
			<data element_type="f16" shape="32, 160, 3, 3" offset="2098602" size="92160" />
			<output>
				<port id="0" precision="FP16" names="body.1.rdb2.conv4.weight">
					<dim>32</dim>
					<dim>160</dim>
					<dim>3</dim>
					<dim>3</dim>
				</port>
			</output>
		</layer>
		<layer id="258" name="body.1.rdb2.conv4.weight" type="Convert" version="opset1">
			<data destination_type="f32" />
			<rt_info>
				<attribute name="decompression" version="0" />
			</rt_info>
			<input>
				<port id="0" precision="FP16">
					<dim>32</dim>
					<dim>160</dim>
					<dim>3</dim>
					<dim>3</dim>
				</port>
			</input>
			<output>
				<port id="1" precision="FP32">
					<dim>32</dim>
					<dim>160</dim>
					<dim>3</dim>
					<dim>3</dim>
				</port>
			</output>
		</layer>
		<layer id="259" name="/body/body.1/rdb2/conv4/Conv/WithoutBiases" type="Convolution" version="opset1">
			<data strides="1, 1" dilations="1, 1" pads_begin="1, 1" pads_end="1, 1" auto_pad="explicit" />
			<input>
				<port id="0" precision="FP32">
					<dim>1</dim>
					<dim>160</dim>
					<dim>-1</dim>
					<dim>-1</dim>
				</port>
				<port id="1" precision="FP32">
					<dim>32</dim>
					<dim>160</dim>
					<dim>3</dim>
					<dim>3</dim>
				</port>
			</input>
			<output>
				<port id="2" precision="FP32">
					<dim>1</dim>
					<dim>32</dim>
					<dim>-1</dim>
					<dim>-1</dim>
				</port>
			</output>
		</layer>
		<layer id="260" name="Reshape_1333_compressed" type="Const" version="opset1">
			<data element_type="f16" shape="1, 32, 1, 1" offset="2190762" size="64" />
			<output>
				<port id="0" precision="FP16">
					<dim>1</dim>
					<dim>32</dim>
					<dim>1</dim>
					<dim>1</dim>
				</port>
			</output>
		</layer>
		<layer id="261" name="Reshape_1333" type="Convert" version="opset1">
			<data destination_type="f32" />
			<rt_info>
				<attribute name="decompression" version="0" />
			</rt_info>
			<input>
				<port id="0" precision="FP16">
					<dim>1</dim>
					<dim>32</dim>
					<dim>1</dim>
					<dim>1</dim>
				</port>
			</input>
			<output>
				<port id="1" precision="FP32">
					<dim>1</dim>
					<dim>32</dim>
					<dim>1</dim>
					<dim>1</dim>
				</port>
			</output>
		</layer>
		<layer id="262" name="/body/body.1/rdb2/conv4/Conv" type="Add" version="opset1">
			<data auto_broadcast="numpy" />
			<input>
				<port id="0" precision="FP32">
					<dim>1</dim>
					<dim>32</dim>
					<dim>-1</dim>
					<dim>-1</dim>
				</port>
				<port id="1" precision="FP32">
					<dim>1</dim>
					<dim>32</dim>
					<dim>1</dim>
					<dim>1</dim>
				</port>
			</input>
			<output>
				<port id="2" precision="FP32" names="/body/body.1/rdb2/conv4/Conv_output_0">
					<dim>1</dim>
					<dim>32</dim>
					<dim>-1</dim>
					<dim>-1</dim>
				</port>
			</output>
		</layer>
		<layer id="263" name="Constant_1335_compressed" type="Const" version="opset1">
			<data element_type="f16" shape="1" offset="50984" size="2" />
			<output>
				<port id="0" precision="FP16">
					<dim>1</dim>
				</port>
			</output>
		</layer>
		<layer id="264" name="Constant_1335" type="Convert" version="opset1">
			<data destination_type="f32" />
			<rt_info>
				<attribute name="decompression" version="0" />
			</rt_info>
			<input>
				<port id="0" precision="FP16">
					<dim>1</dim>
				</port>
			</input>
			<output>
				<port id="1" precision="FP32">
					<dim>1</dim>
				</port>
			</output>
		</layer>
		<layer id="265" name="/body/body.1/rdb2/lrelu_3/LeakyRelu" type="PReLU" version="opset1">
			<input>
				<port id="0" precision="FP32">
					<dim>1</dim>
					<dim>32</dim>
					<dim>-1</dim>
					<dim>-1</dim>
				</port>
				<port id="1" precision="FP32">
					<dim>1</dim>
				</port>
			</input>
			<output>
				<port id="2" precision="FP32" names="/body/body.1/rdb2/lrelu_3/LeakyRelu_output_0">
					<dim>1</dim>
					<dim>32</dim>
					<dim>-1</dim>
					<dim>-1</dim>
				</port>
			</output>
		</layer>
		<layer id="266" name="/body/body.1/rdb2/Concat_3" type="Concat" version="opset1">
			<data axis="1" />
			<input>
				<port id="0" precision="FP32">
					<dim>1</dim>
					<dim>64</dim>
					<dim>-1</dim>
					<dim>-1</dim>
				</port>
				<port id="1" precision="FP32">
					<dim>1</dim>
					<dim>32</dim>
					<dim>-1</dim>
					<dim>-1</dim>
				</port>
				<port id="2" precision="FP32">
					<dim>1</dim>
					<dim>32</dim>
					<dim>-1</dim>
					<dim>-1</dim>
				</port>
				<port id="3" precision="FP32">
					<dim>1</dim>
					<dim>32</dim>
					<dim>-1</dim>
					<dim>-1</dim>
				</port>
				<port id="4" precision="FP32">
					<dim>1</dim>
					<dim>32</dim>
					<dim>-1</dim>
					<dim>-1</dim>
				</port>
			</input>
			<output>
				<port id="5" precision="FP32" names="/body/body.1/rdb2/Concat_3_output_0">
					<dim>1</dim>
					<dim>192</dim>
					<dim>-1</dim>
					<dim>-1</dim>
				</port>
			</output>
		</layer>
		<layer id="267" name="Multiply_14061_compressed" type="Const" version="opset1">
			<data element_type="f16" shape="64, 192, 3, 3" offset="2190826" size="221184" />
			<output>
				<port id="0" precision="FP16">
					<dim>64</dim>
					<dim>192</dim>
					<dim>3</dim>
					<dim>3</dim>
				</port>
			</output>
		</layer>
		<layer id="268" name="Multiply_14061" type="Convert" version="opset1">
			<data destination_type="f32" />
			<rt_info>
				<attribute name="decompression" version="0" />
			</rt_info>
			<input>
				<port id="0" precision="FP16">
					<dim>64</dim>
					<dim>192</dim>
					<dim>3</dim>
					<dim>3</dim>
				</port>
			</input>
			<output>
				<port id="1" precision="FP32">
					<dim>64</dim>
					<dim>192</dim>
					<dim>3</dim>
					<dim>3</dim>
				</port>
			</output>
		</layer>
		<layer id="269" name="Multiply_13793" type="Convolution" version="opset1">
			<data strides="1, 1" dilations="1, 1" pads_begin="1, 1" pads_end="1, 1" auto_pad="explicit" />
			<input>
				<port id="0" precision="FP32">
					<dim>1</dim>
					<dim>192</dim>
					<dim>-1</dim>
					<dim>-1</dim>
				</port>
				<port id="1" precision="FP32">
					<dim>64</dim>
					<dim>192</dim>
					<dim>3</dim>
					<dim>3</dim>
				</port>
			</input>
			<output>
				<port id="2" precision="FP32">
					<dim>1</dim>
					<dim>64</dim>
					<dim>-1</dim>
					<dim>-1</dim>
				</port>
			</output>
		</layer>
		<layer id="270" name="Constant_13795_compressed" type="Const" version="opset1">
			<data element_type="f16" shape="1, 64, 1, 1" offset="2412010" size="128" />
			<output>
				<port id="0" precision="FP16">
					<dim>1</dim>
					<dim>64</dim>
					<dim>1</dim>
					<dim>1</dim>
				</port>
			</output>
		</layer>
		<layer id="271" name="Constant_13795" type="Convert" version="opset1">
			<data destination_type="f32" />
			<rt_info>
				<attribute name="decompression" version="0" />
			</rt_info>
			<input>
				<port id="0" precision="FP16">
					<dim>1</dim>
					<dim>64</dim>
					<dim>1</dim>
					<dim>1</dim>
				</port>
			</input>
			<output>
				<port id="1" precision="FP32">
					<dim>1</dim>
					<dim>64</dim>
					<dim>1</dim>
					<dim>1</dim>
				</port>
			</output>
		</layer>
		<layer id="272" name="/body/body.1/rdb2/Mul" type="Add" version="opset1">
			<data auto_broadcast="numpy" />
			<input>
				<port id="0" precision="FP32">
					<dim>1</dim>
					<dim>64</dim>
					<dim>-1</dim>
					<dim>-1</dim>
				</port>
				<port id="1" precision="FP32">
					<dim>1</dim>
					<dim>64</dim>
					<dim>1</dim>
					<dim>1</dim>
				</port>
			</input>
			<output>
				<port id="2" precision="FP32" names="/body/body.1/rdb2/Mul_output_0">
					<dim>1</dim>
					<dim>64</dim>
					<dim>-1</dim>
					<dim>-1</dim>
				</port>
			</output>
		</layer>
		<layer id="273" name="/body/body.1/rdb2/Add" type="Add" version="opset1">
			<data auto_broadcast="numpy" />
			<input>
				<port id="0" precision="FP32">
					<dim>1</dim>
					<dim>64</dim>
					<dim>-1</dim>
					<dim>-1</dim>
				</port>
				<port id="1" precision="FP32">
					<dim>1</dim>
					<dim>64</dim>
					<dim>-1</dim>
					<dim>-1</dim>
				</port>
			</input>
			<output>
				<port id="2" precision="FP32" names="/body/body.1/rdb2/Add_output_0">
					<dim>1</dim>
					<dim>64</dim>
					<dim>-1</dim>
					<dim>-1</dim>
				</port>
			</output>
		</layer>
		<layer id="274" name="body.1.rdb3.conv1.weight_compressed" type="Const" version="opset1">
			<data element_type="f16" shape="32, 64, 3, 3" offset="2412138" size="36864" />
			<output>
				<port id="0" precision="FP16" names="body.1.rdb3.conv1.weight">
					<dim>32</dim>
					<dim>64</dim>
					<dim>3</dim>
					<dim>3</dim>
				</port>
			</output>
		</layer>
		<layer id="275" name="body.1.rdb3.conv1.weight" type="Convert" version="opset1">
			<data destination_type="f32" />
			<rt_info>
				<attribute name="decompression" version="0" />
			</rt_info>
			<input>
				<port id="0" precision="FP16">
					<dim>32</dim>
					<dim>64</dim>
					<dim>3</dim>
					<dim>3</dim>
				</port>
			</input>
			<output>
				<port id="1" precision="FP32">
					<dim>32</dim>
					<dim>64</dim>
					<dim>3</dim>
					<dim>3</dim>
				</port>
			</output>
		</layer>
		<layer id="276" name="/body/body.1/rdb3/conv1/Conv/WithoutBiases" type="Convolution" version="opset1">
			<data strides="1, 1" dilations="1, 1" pads_begin="1, 1" pads_end="1, 1" auto_pad="explicit" />
			<input>
				<port id="0" precision="FP32">
					<dim>1</dim>
					<dim>64</dim>
					<dim>-1</dim>
					<dim>-1</dim>
				</port>
				<port id="1" precision="FP32">
					<dim>32</dim>
					<dim>64</dim>
					<dim>3</dim>
					<dim>3</dim>
				</port>
			</input>
			<output>
				<port id="2" precision="FP32">
					<dim>1</dim>
					<dim>32</dim>
					<dim>-1</dim>
					<dim>-1</dim>
				</port>
			</output>
		</layer>
		<layer id="277" name="Reshape_1365_compressed" type="Const" version="opset1">
			<data element_type="f16" shape="1, 32, 1, 1" offset="2449002" size="64" />
			<output>
				<port id="0" precision="FP16">
					<dim>1</dim>
					<dim>32</dim>
					<dim>1</dim>
					<dim>1</dim>
				</port>
			</output>
		</layer>
		<layer id="278" name="Reshape_1365" type="Convert" version="opset1">
			<data destination_type="f32" />
			<rt_info>
				<attribute name="decompression" version="0" />
			</rt_info>
			<input>
				<port id="0" precision="FP16">
					<dim>1</dim>
					<dim>32</dim>
					<dim>1</dim>
					<dim>1</dim>
				</port>
			</input>
			<output>
				<port id="1" precision="FP32">
					<dim>1</dim>
					<dim>32</dim>
					<dim>1</dim>
					<dim>1</dim>
				</port>
			</output>
		</layer>
		<layer id="279" name="/body/body.1/rdb3/conv1/Conv" type="Add" version="opset1">
			<data auto_broadcast="numpy" />
			<input>
				<port id="0" precision="FP32">
					<dim>1</dim>
					<dim>32</dim>
					<dim>-1</dim>
					<dim>-1</dim>
				</port>
				<port id="1" precision="FP32">
					<dim>1</dim>
					<dim>32</dim>
					<dim>1</dim>
					<dim>1</dim>
				</port>
			</input>
			<output>
				<port id="2" precision="FP32" names="/body/body.1/rdb3/conv1/Conv_output_0">
					<dim>1</dim>
					<dim>32</dim>
					<dim>-1</dim>
					<dim>-1</dim>
				</port>
			</output>
		</layer>
		<layer id="280" name="Constant_1367_compressed" type="Const" version="opset1">
			<data element_type="f16" shape="1" offset="50984" size="2" />
			<output>
				<port id="0" precision="FP16">
					<dim>1</dim>
				</port>
			</output>
		</layer>
		<layer id="281" name="Constant_1367" type="Convert" version="opset1">
			<data destination_type="f32" />
			<rt_info>
				<attribute name="decompression" version="0" />
			</rt_info>
			<input>
				<port id="0" precision="FP16">
					<dim>1</dim>
				</port>
			</input>
			<output>
				<port id="1" precision="FP32">
					<dim>1</dim>
				</port>
			</output>
		</layer>
		<layer id="282" name="/body/body.1/rdb3/lrelu/LeakyRelu" type="PReLU" version="opset1">
			<input>
				<port id="0" precision="FP32">
					<dim>1</dim>
					<dim>32</dim>
					<dim>-1</dim>
					<dim>-1</dim>
				</port>
				<port id="1" precision="FP32">
					<dim>1</dim>
				</port>
			</input>
			<output>
				<port id="2" precision="FP32" names="/body/body.1/rdb3/lrelu/LeakyRelu_output_0">
					<dim>1</dim>
					<dim>32</dim>
					<dim>-1</dim>
					<dim>-1</dim>
				</port>
			</output>
		</layer>
		<layer id="283" name="/body/body.1/rdb3/Concat" type="Concat" version="opset1">
			<data axis="1" />
			<input>
				<port id="0" precision="FP32">
					<dim>1</dim>
					<dim>64</dim>
					<dim>-1</dim>
					<dim>-1</dim>
				</port>
				<port id="1" precision="FP32">
					<dim>1</dim>
					<dim>32</dim>
					<dim>-1</dim>
					<dim>-1</dim>
				</port>
			</input>
			<output>
				<port id="2" precision="FP32" names="/body/body.1/rdb3/Concat_output_0">
					<dim>1</dim>
					<dim>96</dim>
					<dim>-1</dim>
					<dim>-1</dim>
				</port>
			</output>
		</layer>
		<layer id="284" name="body.1.rdb3.conv2.weight_compressed" type="Const" version="opset1">
			<data element_type="f16" shape="32, 96, 3, 3" offset="2449066" size="55296" />
			<output>
				<port id="0" precision="FP16" names="body.1.rdb3.conv2.weight">
					<dim>32</dim>
					<dim>96</dim>
					<dim>3</dim>
					<dim>3</dim>
				</port>
			</output>
		</layer>
		<layer id="285" name="body.1.rdb3.conv2.weight" type="Convert" version="opset1">
			<data destination_type="f32" />
			<rt_info>
				<attribute name="decompression" version="0" />
			</rt_info>
			<input>
				<port id="0" precision="FP16">
					<dim>32</dim>
					<dim>96</dim>
					<dim>3</dim>
					<dim>3</dim>
				</port>
			</input>
			<output>
				<port id="1" precision="FP32">
					<dim>32</dim>
					<dim>96</dim>
					<dim>3</dim>
					<dim>3</dim>
				</port>
			</output>
		</layer>
		<layer id="286" name="/body/body.1/rdb3/conv2/Conv/WithoutBiases" type="Convolution" version="opset1">
			<data strides="1, 1" dilations="1, 1" pads_begin="1, 1" pads_end="1, 1" auto_pad="explicit" />
			<input>
				<port id="0" precision="FP32">
					<dim>1</dim>
					<dim>96</dim>
					<dim>-1</dim>
					<dim>-1</dim>
				</port>
				<port id="1" precision="FP32">
					<dim>32</dim>
					<dim>96</dim>
					<dim>3</dim>
					<dim>3</dim>
				</port>
			</input>
			<output>
				<port id="2" precision="FP32">
					<dim>1</dim>
					<dim>32</dim>
					<dim>-1</dim>
					<dim>-1</dim>
				</port>
			</output>
		</layer>
		<layer id="287" name="Reshape_1381_compressed" type="Const" version="opset1">
			<data element_type="f16" shape="1, 32, 1, 1" offset="2504362" size="64" />
			<output>
				<port id="0" precision="FP16">
					<dim>1</dim>
					<dim>32</dim>
					<dim>1</dim>
					<dim>1</dim>
				</port>
			</output>
		</layer>
		<layer id="288" name="Reshape_1381" type="Convert" version="opset1">
			<data destination_type="f32" />
			<rt_info>
				<attribute name="decompression" version="0" />
			</rt_info>
			<input>
				<port id="0" precision="FP16">
					<dim>1</dim>
					<dim>32</dim>
					<dim>1</dim>
					<dim>1</dim>
				</port>
			</input>
			<output>
				<port id="1" precision="FP32">
					<dim>1</dim>
					<dim>32</dim>
					<dim>1</dim>
					<dim>1</dim>
				</port>
			</output>
		</layer>
		<layer id="289" name="/body/body.1/rdb3/conv2/Conv" type="Add" version="opset1">
			<data auto_broadcast="numpy" />
			<input>
				<port id="0" precision="FP32">
					<dim>1</dim>
					<dim>32</dim>
					<dim>-1</dim>
					<dim>-1</dim>
				</port>
				<port id="1" precision="FP32">
					<dim>1</dim>
					<dim>32</dim>
					<dim>1</dim>
					<dim>1</dim>
				</port>
			</input>
			<output>
				<port id="2" precision="FP32" names="/body/body.1/rdb3/conv2/Conv_output_0">
					<dim>1</dim>
					<dim>32</dim>
					<dim>-1</dim>
					<dim>-1</dim>
				</port>
			</output>
		</layer>
		<layer id="290" name="Constant_1383_compressed" type="Const" version="opset1">
			<data element_type="f16" shape="1" offset="50984" size="2" />
			<output>
				<port id="0" precision="FP16">
					<dim>1</dim>
				</port>
			</output>
		</layer>
		<layer id="291" name="Constant_1383" type="Convert" version="opset1">
			<data destination_type="f32" />
			<rt_info>
				<attribute name="decompression" version="0" />
			</rt_info>
			<input>
				<port id="0" precision="FP16">
					<dim>1</dim>
				</port>
			</input>
			<output>
				<port id="1" precision="FP32">
					<dim>1</dim>
				</port>
			</output>
		</layer>
		<layer id="292" name="/body/body.1/rdb3/lrelu_1/LeakyRelu" type="PReLU" version="opset1">
			<input>
				<port id="0" precision="FP32">
					<dim>1</dim>
					<dim>32</dim>
					<dim>-1</dim>
					<dim>-1</dim>
				</port>
				<port id="1" precision="FP32">
					<dim>1</dim>
				</port>
			</input>
			<output>
				<port id="2" precision="FP32" names="/body/body.1/rdb3/lrelu_1/LeakyRelu_output_0">
					<dim>1</dim>
					<dim>32</dim>
					<dim>-1</dim>
					<dim>-1</dim>
				</port>
			</output>
		</layer>
		<layer id="293" name="/body/body.1/rdb3/Concat_1" type="Concat" version="opset1">
			<data axis="1" />
			<input>
				<port id="0" precision="FP32">
					<dim>1</dim>
					<dim>64</dim>
					<dim>-1</dim>
					<dim>-1</dim>
				</port>
				<port id="1" precision="FP32">
					<dim>1</dim>
					<dim>32</dim>
					<dim>-1</dim>
					<dim>-1</dim>
				</port>
				<port id="2" precision="FP32">
					<dim>1</dim>
					<dim>32</dim>
					<dim>-1</dim>
					<dim>-1</dim>
				</port>
			</input>
			<output>
				<port id="3" precision="FP32" names="/body/body.1/rdb3/Concat_1_output_0">
					<dim>1</dim>
					<dim>128</dim>
					<dim>-1</dim>
					<dim>-1</dim>
				</port>
			</output>
		</layer>
		<layer id="294" name="body.1.rdb3.conv3.weight_compressed" type="Const" version="opset1">
			<data element_type="f16" shape="32, 128, 3, 3" offset="2504426" size="73728" />
			<output>
				<port id="0" precision="FP16" names="body.1.rdb3.conv3.weight">
					<dim>32</dim>
					<dim>128</dim>
					<dim>3</dim>
					<dim>3</dim>
				</port>
			</output>
		</layer>
		<layer id="295" name="body.1.rdb3.conv3.weight" type="Convert" version="opset1">
			<data destination_type="f32" />
			<rt_info>
				<attribute name="decompression" version="0" />
			</rt_info>
			<input>
				<port id="0" precision="FP16">
					<dim>32</dim>
					<dim>128</dim>
					<dim>3</dim>
					<dim>3</dim>
				</port>
			</input>
			<output>
				<port id="1" precision="FP32">
					<dim>32</dim>
					<dim>128</dim>
					<dim>3</dim>
					<dim>3</dim>
				</port>
			</output>
		</layer>
		<layer id="296" name="/body/body.1/rdb3/conv3/Conv/WithoutBiases" type="Convolution" version="opset1">
			<data strides="1, 1" dilations="1, 1" pads_begin="1, 1" pads_end="1, 1" auto_pad="explicit" />
			<input>
				<port id="0" precision="FP32">
					<dim>1</dim>
					<dim>128</dim>
					<dim>-1</dim>
					<dim>-1</dim>
				</port>
				<port id="1" precision="FP32">
					<dim>32</dim>
					<dim>128</dim>
					<dim>3</dim>
					<dim>3</dim>
				</port>
			</input>
			<output>
				<port id="2" precision="FP32">
					<dim>1</dim>
					<dim>32</dim>
					<dim>-1</dim>
					<dim>-1</dim>
				</port>
			</output>
		</layer>
		<layer id="297" name="Reshape_1397_compressed" type="Const" version="opset1">
			<data element_type="f16" shape="1, 32, 1, 1" offset="2578154" size="64" />
			<output>
				<port id="0" precision="FP16">
					<dim>1</dim>
					<dim>32</dim>
					<dim>1</dim>
					<dim>1</dim>
				</port>
			</output>
		</layer>
		<layer id="298" name="Reshape_1397" type="Convert" version="opset1">
			<data destination_type="f32" />
			<rt_info>
				<attribute name="decompression" version="0" />
			</rt_info>
			<input>
				<port id="0" precision="FP16">
					<dim>1</dim>
					<dim>32</dim>
					<dim>1</dim>
					<dim>1</dim>
				</port>
			</input>
			<output>
				<port id="1" precision="FP32">
					<dim>1</dim>
					<dim>32</dim>
					<dim>1</dim>
					<dim>1</dim>
				</port>
			</output>
		</layer>
		<layer id="299" name="/body/body.1/rdb3/conv3/Conv" type="Add" version="opset1">
			<data auto_broadcast="numpy" />
			<input>
				<port id="0" precision="FP32">
					<dim>1</dim>
					<dim>32</dim>
					<dim>-1</dim>
					<dim>-1</dim>
				</port>
				<port id="1" precision="FP32">
					<dim>1</dim>
					<dim>32</dim>
					<dim>1</dim>
					<dim>1</dim>
				</port>
			</input>
			<output>
				<port id="2" precision="FP32" names="/body/body.1/rdb3/conv3/Conv_output_0">
					<dim>1</dim>
					<dim>32</dim>
					<dim>-1</dim>
					<dim>-1</dim>
				</port>
			</output>
		</layer>
		<layer id="300" name="Constant_1399_compressed" type="Const" version="opset1">
			<data element_type="f16" shape="1" offset="50984" size="2" />
			<output>
				<port id="0" precision="FP16">
					<dim>1</dim>
				</port>
			</output>
		</layer>
		<layer id="301" name="Constant_1399" type="Convert" version="opset1">
			<data destination_type="f32" />
			<rt_info>
				<attribute name="decompression" version="0" />
			</rt_info>
			<input>
				<port id="0" precision="FP16">
					<dim>1</dim>
				</port>
			</input>
			<output>
				<port id="1" precision="FP32">
					<dim>1</dim>
				</port>
			</output>
		</layer>
		<layer id="302" name="/body/body.1/rdb3/lrelu_2/LeakyRelu" type="PReLU" version="opset1">
			<input>
				<port id="0" precision="FP32">
					<dim>1</dim>
					<dim>32</dim>
					<dim>-1</dim>
					<dim>-1</dim>
				</port>
				<port id="1" precision="FP32">
					<dim>1</dim>
				</port>
			</input>
			<output>
				<port id="2" precision="FP32" names="/body/body.1/rdb3/lrelu_2/LeakyRelu_output_0">
					<dim>1</dim>
					<dim>32</dim>
					<dim>-1</dim>
					<dim>-1</dim>
				</port>
			</output>
		</layer>
		<layer id="303" name="/body/body.1/rdb3/Concat_2" type="Concat" version="opset1">
			<data axis="1" />
			<input>
				<port id="0" precision="FP32">
					<dim>1</dim>
					<dim>64</dim>
					<dim>-1</dim>
					<dim>-1</dim>
				</port>
				<port id="1" precision="FP32">
					<dim>1</dim>
					<dim>32</dim>
					<dim>-1</dim>
					<dim>-1</dim>
				</port>
				<port id="2" precision="FP32">
					<dim>1</dim>
					<dim>32</dim>
					<dim>-1</dim>
					<dim>-1</dim>
				</port>
				<port id="3" precision="FP32">
					<dim>1</dim>
					<dim>32</dim>
					<dim>-1</dim>
					<dim>-1</dim>
				</port>
			</input>
			<output>
				<port id="4" precision="FP32" names="/body/body.1/rdb3/Concat_2_output_0">
					<dim>1</dim>
					<dim>160</dim>
					<dim>-1</dim>
					<dim>-1</dim>
				</port>
			</output>
		</layer>
		<layer id="304" name="body.1.rdb3.conv4.weight_compressed" type="Const" version="opset1">
			<data element_type="f16" shape="32, 160, 3, 3" offset="2578218" size="92160" />
			<output>
				<port id="0" precision="FP16" names="body.1.rdb3.conv4.weight">
					<dim>32</dim>
					<dim>160</dim>
					<dim>3</dim>
					<dim>3</dim>
				</port>
			</output>
		</layer>
		<layer id="305" name="body.1.rdb3.conv4.weight" type="Convert" version="opset1">
			<data destination_type="f32" />
			<rt_info>
				<attribute name="decompression" version="0" />
			</rt_info>
			<input>
				<port id="0" precision="FP16">
					<dim>32</dim>
					<dim>160</dim>
					<dim>3</dim>
					<dim>3</dim>
				</port>
			</input>
			<output>
				<port id="1" precision="FP32">
					<dim>32</dim>
					<dim>160</dim>
					<dim>3</dim>
					<dim>3</dim>
				</port>
			</output>
		</layer>
		<layer id="306" name="/body/body.1/rdb3/conv4/Conv/WithoutBiases" type="Convolution" version="opset1">
			<data strides="1, 1" dilations="1, 1" pads_begin="1, 1" pads_end="1, 1" auto_pad="explicit" />
			<input>
				<port id="0" precision="FP32">
					<dim>1</dim>
					<dim>160</dim>
					<dim>-1</dim>
					<dim>-1</dim>
				</port>
				<port id="1" precision="FP32">
					<dim>32</dim>
					<dim>160</dim>
					<dim>3</dim>
					<dim>3</dim>
				</port>
			</input>
			<output>
				<port id="2" precision="FP32">
					<dim>1</dim>
					<dim>32</dim>
					<dim>-1</dim>
					<dim>-1</dim>
				</port>
			</output>
		</layer>
		<layer id="307" name="Reshape_1413_compressed" type="Const" version="opset1">
			<data element_type="f16" shape="1, 32, 1, 1" offset="2670378" size="64" />
			<output>
				<port id="0" precision="FP16">
					<dim>1</dim>
					<dim>32</dim>
					<dim>1</dim>
					<dim>1</dim>
				</port>
			</output>
		</layer>
		<layer id="308" name="Reshape_1413" type="Convert" version="opset1">
			<data destination_type="f32" />
			<rt_info>
				<attribute name="decompression" version="0" />
			</rt_info>
			<input>
				<port id="0" precision="FP16">
					<dim>1</dim>
					<dim>32</dim>
					<dim>1</dim>
					<dim>1</dim>
				</port>
			</input>
			<output>
				<port id="1" precision="FP32">
					<dim>1</dim>
					<dim>32</dim>
					<dim>1</dim>
					<dim>1</dim>
				</port>
			</output>
		</layer>
		<layer id="309" name="/body/body.1/rdb3/conv4/Conv" type="Add" version="opset1">
			<data auto_broadcast="numpy" />
			<input>
				<port id="0" precision="FP32">
					<dim>1</dim>
					<dim>32</dim>
					<dim>-1</dim>
					<dim>-1</dim>
				</port>
				<port id="1" precision="FP32">
					<dim>1</dim>
					<dim>32</dim>
					<dim>1</dim>
					<dim>1</dim>
				</port>
			</input>
			<output>
				<port id="2" precision="FP32" names="/body/body.1/rdb3/conv4/Conv_output_0">
					<dim>1</dim>
					<dim>32</dim>
					<dim>-1</dim>
					<dim>-1</dim>
				</port>
			</output>
		</layer>
		<layer id="310" name="Constant_1415_compressed" type="Const" version="opset1">
			<data element_type="f16" shape="1" offset="50984" size="2" />
			<output>
				<port id="0" precision="FP16">
					<dim>1</dim>
				</port>
			</output>
		</layer>
		<layer id="311" name="Constant_1415" type="Convert" version="opset1">
			<data destination_type="f32" />
			<rt_info>
				<attribute name="decompression" version="0" />
			</rt_info>
			<input>
				<port id="0" precision="FP16">
					<dim>1</dim>
				</port>
			</input>
			<output>
				<port id="1" precision="FP32">
					<dim>1</dim>
				</port>
			</output>
		</layer>
		<layer id="312" name="/body/body.1/rdb3/lrelu_3/LeakyRelu" type="PReLU" version="opset1">
			<input>
				<port id="0" precision="FP32">
					<dim>1</dim>
					<dim>32</dim>
					<dim>-1</dim>
					<dim>-1</dim>
				</port>
				<port id="1" precision="FP32">
					<dim>1</dim>
				</port>
			</input>
			<output>
				<port id="2" precision="FP32" names="/body/body.1/rdb3/lrelu_3/LeakyRelu_output_0">
					<dim>1</dim>
					<dim>32</dim>
					<dim>-1</dim>
					<dim>-1</dim>
				</port>
			</output>
		</layer>
		<layer id="313" name="/body/body.1/rdb3/Concat_3" type="Concat" version="opset1">
			<data axis="1" />
			<input>
				<port id="0" precision="FP32">
					<dim>1</dim>
					<dim>64</dim>
					<dim>-1</dim>
					<dim>-1</dim>
				</port>
				<port id="1" precision="FP32">
					<dim>1</dim>
					<dim>32</dim>
					<dim>-1</dim>
					<dim>-1</dim>
				</port>
				<port id="2" precision="FP32">
					<dim>1</dim>
					<dim>32</dim>
					<dim>-1</dim>
					<dim>-1</dim>
				</port>
				<port id="3" precision="FP32">
					<dim>1</dim>
					<dim>32</dim>
					<dim>-1</dim>
					<dim>-1</dim>
				</port>
				<port id="4" precision="FP32">
					<dim>1</dim>
					<dim>32</dim>
					<dim>-1</dim>
					<dim>-1</dim>
				</port>
			</input>
			<output>
				<port id="5" precision="FP32" names="/body/body.1/rdb3/Concat_3_output_0">
					<dim>1</dim>
					<dim>192</dim>
					<dim>-1</dim>
					<dim>-1</dim>
				</port>
			</output>
		</layer>
		<layer id="314" name="Multiply_14063_compressed" type="Const" version="opset1">
			<data element_type="f16" shape="64, 192, 3, 3" offset="2670442" size="221184" />
			<output>
				<port id="0" precision="FP16">
					<dim>64</dim>
					<dim>192</dim>
					<dim>3</dim>
					<dim>3</dim>
				</port>
			</output>
		</layer>
		<layer id="315" name="Multiply_14063" type="Convert" version="opset1">
			<data destination_type="f32" />
			<rt_info>
				<attribute name="decompression" version="0" />
			</rt_info>
			<input>
				<port id="0" precision="FP16">
					<dim>64</dim>
					<dim>192</dim>
					<dim>3</dim>
					<dim>3</dim>
				</port>
			</input>
			<output>
				<port id="1" precision="FP32">
					<dim>64</dim>
					<dim>192</dim>
					<dim>3</dim>
					<dim>3</dim>
				</port>
			</output>
		</layer>
		<layer id="316" name="Multiply_13797" type="Convolution" version="opset1">
			<data strides="1, 1" dilations="1, 1" pads_begin="1, 1" pads_end="1, 1" auto_pad="explicit" />
			<input>
				<port id="0" precision="FP32">
					<dim>1</dim>
					<dim>192</dim>
					<dim>-1</dim>
					<dim>-1</dim>
				</port>
				<port id="1" precision="FP32">
					<dim>64</dim>
					<dim>192</dim>
					<dim>3</dim>
					<dim>3</dim>
				</port>
			</input>
			<output>
				<port id="2" precision="FP32">
					<dim>1</dim>
					<dim>64</dim>
					<dim>-1</dim>
					<dim>-1</dim>
				</port>
			</output>
		</layer>
		<layer id="317" name="Constant_13799_compressed" type="Const" version="opset1">
			<data element_type="f16" shape="1, 64, 1, 1" offset="2891626" size="128" />
			<output>
				<port id="0" precision="FP16">
					<dim>1</dim>
					<dim>64</dim>
					<dim>1</dim>
					<dim>1</dim>
				</port>
			</output>
		</layer>
		<layer id="318" name="Constant_13799" type="Convert" version="opset1">
			<data destination_type="f32" />
			<rt_info>
				<attribute name="decompression" version="0" />
			</rt_info>
			<input>
				<port id="0" precision="FP16">
					<dim>1</dim>
					<dim>64</dim>
					<dim>1</dim>
					<dim>1</dim>
				</port>
			</input>
			<output>
				<port id="1" precision="FP32">
					<dim>1</dim>
					<dim>64</dim>
					<dim>1</dim>
					<dim>1</dim>
				</port>
			</output>
		</layer>
		<layer id="319" name="/body/body.1/rdb3/Mul" type="Add" version="opset1">
			<data auto_broadcast="numpy" />
			<input>
				<port id="0" precision="FP32">
					<dim>1</dim>
					<dim>64</dim>
					<dim>-1</dim>
					<dim>-1</dim>
				</port>
				<port id="1" precision="FP32">
					<dim>1</dim>
					<dim>64</dim>
					<dim>1</dim>
					<dim>1</dim>
				</port>
			</input>
			<output>
				<port id="2" precision="FP32" names="/body/body.1/rdb3/Mul_output_0">
					<dim>1</dim>
					<dim>64</dim>
					<dim>-1</dim>
					<dim>-1</dim>
				</port>
			</output>
		</layer>
		<layer id="320" name="/body/body.1/rdb3/Add" type="Add" version="opset1">
			<data auto_broadcast="numpy" />
			<input>
				<port id="0" precision="FP32">
					<dim>1</dim>
					<dim>64</dim>
					<dim>-1</dim>
					<dim>-1</dim>
				</port>
				<port id="1" precision="FP32">
					<dim>1</dim>
					<dim>64</dim>
					<dim>-1</dim>
					<dim>-1</dim>
				</port>
			</input>
			<output>
				<port id="2" precision="FP32" names="/body/body.1/rdb3/Add_output_0">
					<dim>1</dim>
					<dim>64</dim>
					<dim>-1</dim>
					<dim>-1</dim>
				</port>
			</output>
		</layer>
		<layer id="321" name="Constant_14283_compressed" type="Const" version="opset1">
…
		<edge from-layer="2836" from-port="2" to-layer="2839" to-port="0" />
		<edge from-layer="2836" from-port="2" to-layer="2846" to-port="0" />
		<edge from-layer="2836" from-port="2" to-layer="2856" to-port="0" />
		<edge from-layer="2836" from-port="2" to-layer="2866" to-port="0" />
		<edge from-layer="2836" from-port="2" to-layer="2876" to-port="0" />
		<edge from-layer="2837" from-port="0" to-layer="2838" to-port="0" />
		<edge from-layer="2838" from-port="1" to-layer="2839" to-port="1" />
		<edge from-layer="2839" from-port="2" to-layer="2842" to-port="0" />
		<edge from-layer="2840" from-port="0" to-layer="2841" to-port="0" />
		<edge from-layer="2841" from-port="1" to-layer="2842" to-port="1" />
		<edge from-layer="2842" from-port="2" to-layer="2845" to-port="0" />
		<edge from-layer="2843" from-port="0" to-layer="2844" to-port="0" />
		<edge from-layer="2844" from-port="1" to-layer="2845" to-port="1" />
		<edge from-layer="2845" from-port="2" to-layer="2846" to-port="1" />
		<edge from-layer="2845" from-port="2" to-layer="2856" to-port="1" />
		<edge from-layer="2845" from-port="2" to-layer="2876" to-port="1" />
		<edge from-layer="2845" from-port="2" to-layer="2866" to-port="1" />
		<edge from-layer="2846" from-port="2" to-layer="2849" to-port="0" />
		<edge from-layer="2847" from-port="0" to-layer="2848" to-port="0" />
		<edge from-layer="2848" from-port="1" to-layer="2849" to-port="1" />
		<edge from-layer="2849" from-port="2" to-layer="2852" to-port="0" />
		<edge from-layer="2850" from-port="0" to-layer="2851" to-port="0" />
		<edge from-layer="2851" from-port="1" to-layer="2852" to-port="1" />
		<edge from-layer="2852" from-port="2" to-layer="2855" to-port="0" />
		<edge from-layer="2853" from-port="0" to-layer="2854" to-port="0" />
		<edge from-layer="2854" from-port="1" to-layer="2855" to-port="1" />
		<edge from-layer="2855" from-port="2" to-layer="2856" to-port="2" />
		<edge from-layer="2855" from-port="2" to-layer="2866" to-port="2" />
		<edge from-layer="2855" from-port="2" to-layer="2876" to-port="2" />
		<edge from-layer="2856" from-port="3" to-layer="2859" to-port="0" />
		<edge from-layer="2857" from-port="0" to-layer="2858" to-port="0" />
		<edge from-layer="2858" from-port="1" to-layer="2859" to-port="1" />
		<edge from-layer="2859" from-port="2" to-layer="2862" to-port="0" />
		<edge from-layer="2860" from-port="0" to-layer="2861" to-port="0" />
		<edge from-layer="2861" from-port="1" to-layer="2862" to-port="1" />
		<edge from-layer="2862" from-port="2" to-layer="2865" to-port="0" />
		<edge from-layer="2863" from-port="0" to-layer="2864" to-port="0" />
		<edge from-layer="2864" from-port="1" to-layer="2865" to-port="1" />
		<edge from-layer="2865" from-port="2" to-layer="2866" to-port="3" />
		<edge from-layer="2865" from-port="2" to-layer="2876" to-port="3" />
		<edge from-layer="2866" from-port="4" to-layer="2869" to-port="0" />
		<edge from-layer="2867" from-port="0" to-layer="2868" to-port="0" />
		<edge from-layer="2868" from-port="1" to-layer="2869" to-port="1" />
		<edge from-layer="2869" from-port="2" to-layer="2872" to-port="0" />
		<edge from-layer="2870" from-port="0" to-layer="2871" to-port="0" />
		<edge from-layer="2871" from-port="1" to-layer="2872" to-port="1" />
		<edge from-layer="2872" from-port="2" to-layer="2875" to-port="0" />
		<edge from-layer="2873" from-port="0" to-layer="2874" to-port="0" />
		<edge from-layer="2874" from-port="1" to-layer="2875" to-port="1" />
		<edge from-layer="2875" from-port="2" to-layer="2876" to-port="4" />
		<edge from-layer="2876" from-port="5" to-layer="2879" to-port="0" />
		<edge from-layer="2877" from-port="0" to-layer="2878" to-port="0" />
		<edge from-layer="2878" from-port="1" to-layer="2879" to-port="1" />
		<edge from-layer="2879" from-port="2" to-layer="2882" to-port="0" />
		<edge from-layer="2880" from-port="0" to-layer="2881" to-port="0" />
		<edge from-layer="2881" from-port="1" to-layer="2882" to-port="1" />
		<edge from-layer="2882" from-port="2" to-layer="2883" to-port="0" />
		<edge from-layer="2883" from-port="2" to-layer="2886" to-port="0" />
		<edge from-layer="2883" from-port="2" to-layer="2893" to-port="0" />
		<edge from-layer="2883" from-port="2" to-layer="2923" to-port="0" />
		<edge from-layer="2883" from-port="2" to-layer="2930" to-port="1" />
		<edge from-layer="2883" from-port="2" to-layer="2913" to-port="0" />
		<edge from-layer="2883" from-port="2" to-layer="2903" to-port="0" />
		<edge from-layer="2884" from-port="0" to-layer="2885" to-port="0" />
		<edge from-layer="2885" from-port="1" to-layer="2886" to-port="1" />
		<edge from-layer="2886" from-port="2" to-layer="2889" to-port="0" />
		<edge from-layer="2887" from-port="0" to-layer="2888" to-port="0" />
		<edge from-layer="2888" from-port="1" to-layer="2889" to-port="1" />
		<edge from-layer="2889" from-port="2" to-layer="2892" to-port="0" />
		<edge from-layer="2890" from-port="0" to-layer="2891" to-port="0" />
		<edge from-layer="2891" from-port="1" to-layer="2892" to-port="1" />
		<edge from-layer="2892" from-port="2" to-layer="2893" to-port="1" />
		<edge from-layer="2892" from-port="2" to-layer="2903" to-port="1" />
		<edge from-layer="2892" from-port="2" to-layer="2923" to-port="1" />
		<edge from-layer="2892" from-port="2" to-layer="2913" to-port="1" />
		<edge from-layer="2893" from-port="2" to-layer="2896" to-port="0" />
		<edge from-layer="2894" from-port="0" to-layer="2895" to-port="0" />
		<edge from-layer="2895" from-port="1" to-layer="2896" to-port="1" />
		<edge from-layer="2896" from-port="2" to-layer="2899" to-port="0" />
		<edge from-layer="2897" from-port="0" to-layer="2898" to-port="0" />
		<edge from-layer="2898" from-port="1" to-layer="2899" to-port="1" />
		<edge from-layer="2899" from-port="2" to-layer="2902" to-port="0" />
		<edge from-layer="2900" from-port="0" to-layer="2901" to-port="0" />
		<edge from-layer="2901" from-port="1" to-layer="2902" to-port="1" />
		<edge from-layer="2902" from-port="2" to-layer="2903" to-port="2" />
		<edge from-layer="2902" from-port="2" to-layer="2913" to-port="2" />
		<edge from-layer="2902" from-port="2" to-layer="2923" to-port="2" />
		<edge from-layer="2903" from-port="3" to-layer="2906" to-port="0" />
		<edge from-layer="2904" from-port="0" to-layer="2905" to-port="0" />
		<edge from-layer="2905" from-port="1" to-layer="2906" to-port="1" />
		<edge from-layer="2906" from-port="2" to-layer="2909" to-port="0" />
		<edge from-layer="2907" from-port="0" to-layer="2908" to-port="0" />
		<edge from-layer="2908" from-port="1" to-layer="2909" to-port="1" />
		<edge from-layer="2909" from-port="2" to-layer="2912" to-port="0" />
		<edge from-layer="2910" from-port="0" to-layer="2911" to-port="0" />
		<edge from-layer="2911" from-port="1" to-layer="2912" to-port="1" />
		<edge from-layer="2912" from-port="2" to-layer="2913" to-port="3" />
		<edge from-layer="2912" from-port="2" to-layer="2923" to-port="3" />
		<edge from-layer="2913" from-port="4" to-layer="2916" to-port="0" />
		<edge from-layer="2914" from-port="0" to-layer="2915" to-port="0" />
		<edge from-layer="2915" from-port="1" to-layer="2916" to-port="1" />
		<edge from-layer="2916" from-port="2" to-layer="2919" to-port="0" />
		<edge from-layer="2917" from-port="0" to-layer="2918" to-port="0" />
		<edge from-layer="2918" from-port="1" to-layer="2919" to-port="1" />
		<edge from-layer="2919" from-port="2" to-layer="2922" to-port="0" />
		<edge from-layer="2920" from-port="0" to-layer="2921" to-port="0" />
		<edge from-layer="2921" from-port="1" to-layer="2922" to-port="1" />
		<edge from-layer="2922" from-port="2" to-layer="2923" to-port="4" />
		<edge from-layer="2923" from-port="5" to-layer="2926" to-port="0" />
		<edge from-layer="2924" from-port="0" to-layer="2925" to-port="0" />
		<edge from-layer="2925" from-port="1" to-layer="2926" to-port="1" />
		<edge from-layer="2926" from-port="2" to-layer="2929" to-port="0" />
		<edge from-layer="2927" from-port="0" to-layer="2928" to-port="0" />
		<edge from-layer="2928" from-port="1" to-layer="2929" to-port="1" />
		<edge from-layer="2929" from-port="2" to-layer="2930" to-port="0" />
		<edge from-layer="2930" from-port="2" to-layer="2933" to-port="0" />
		<edge from-layer="2931" from-port="0" to-layer="2932" to-port="0" />
		<edge from-layer="2932" from-port="1" to-layer="2933" to-port="1" />
		<edge from-layer="2933" from-port="2" to-layer="2934" to-port="0" />
		<edge from-layer="2934" from-port="2" to-layer="2937" to-port="0" />
		<edge from-layer="2934" from-port="2" to-layer="3079" to-port="1" />
		<edge from-layer="2934" from-port="2" to-layer="2944" to-port="0" />
		<edge from-layer="2934" from-port="2" to-layer="2954" to-port="0" />
		<edge from-layer="2934" from-port="2" to-layer="2964" to-port="0" />
		<edge from-layer="2934" from-port="2" to-layer="2974" to-port="0" />
		<edge from-layer="2934" from-port="2" to-layer="2981" to-port="1" />
		<edge from-layer="2935" from-port="0" to-layer="2936" to-port="0" />
		<edge from-layer="2936" from-port="1" to-layer="2937" to-port="1" />
		<edge from-layer="2937" from-port="2" to-layer="2940" to-port="0" />
		<edge from-layer="2938" from-port="0" to-layer="2939" to-port="0" />
		<edge from-layer="2939" from-port="1" to-layer="2940" to-port="1" />
		<edge from-layer="2940" from-port="2" to-layer="2943" to-port="0" />
		<edge from-layer="2941" from-port="0" to-layer="2942" to-port="0" />
		<edge from-layer="2942" from-port="1" to-layer="2943" to-port="1" />
		<edge from-layer="2943" from-port="2" to-layer="2944" to-port="1" />
		<edge from-layer="2943" from-port="2" to-layer="2964" to-port="1" />
		<edge from-layer="2943" from-port="2" to-layer="2974" to-port="1" />
		<edge from-layer="2943" from-port="2" to-layer="2954" to-port="1" />
		<edge from-layer="2944" from-port="2" to-layer="2947" to-port="0" />
		<edge from-layer="2945" from-port="0" to-layer="2946" to-port="0" />
		<edge from-layer="2946" from-port="1" to-layer="2947" to-port="1" />
		<edge from-layer="2947" from-port="2" to-layer="2950" to-port="0" />
		<edge from-layer="2948" from-port="0" to-layer="2949" to-port="0" />
		<edge from-layer="2949" from-port="1" to-layer="2950" to-port="1" />
		<edge from-layer="2950" from-port="2" to-layer="2953" to-port="0" />
		<edge from-layer="2951" from-port="0" to-layer="2952" to-port="0" />
		<edge from-layer="2952" from-port="1" to-layer="2953" to-port="1" />
		<edge from-layer="2953" from-port="2" to-layer="2964" to-port="2" />
		<edge from-layer="2953" from-port="2" to-layer="2954" to-port="2" />
		<edge from-layer="2953" from-port="2" to-layer="2974" to-port="2" />
		<edge from-layer="2954" from-port="3" to-layer="2957" to-port="0" />
		<edge from-layer="2955" from-port="0" to-layer="2956" to-port="0" />
		<edge from-layer="2956" from-port="1" to-layer="2957" to-port="1" />
		<edge from-layer="2957" from-port="2" to-layer="2960" to-port="0" />
		<edge from-layer="2958" from-port="0" to-layer="2959" to-port="0" />
		<edge from-layer="2959" from-port="1" to-layer="2960" to-port="1" />
		<edge from-layer="2960" from-port="2" to-layer="2963" to-port="0" />
		<edge from-layer="2961" from-port="0" to-layer="2962" to-port="0" />
		<edge from-layer="2962" from-port="1" to-layer="2963" to-port="1" />
		<edge from-layer="2963" from-port="2" to-layer="2964" to-port="3" />
		<edge from-layer="2963" from-port="2" to-layer="2974" to-port="3" />
		<edge from-layer="2964" from-port="4" to-layer="2967" to-port="0" />
		<edge from-layer="2965" from-port="0" to-layer="2966" to-port="0" />
		<edge from-layer="2966" from-port="1" to-layer="2967" to-port="1" />
		<edge from-layer="2967" from-port="2" to-layer="2970" to-port="0" />
		<edge from-layer="2968" from-port="0" to-layer="2969" to-port="0" />
		<edge from-layer="2969" from-port="1" to-layer="2970" to-port="1" />
		<edge from-layer="2970" from-port="2" to-layer="2973" to-port="0" />
		<edge from-layer="2971" from-port="0" to-layer="2972" to-port="0" />
		<edge from-layer="2972" from-port="1" to-layer="2973" to-port="1" />
		<edge from-layer="2973" from-port="2" to-layer="2974" to-port="4" />
		<edge from-layer="2974" from-port="5" to-layer="2977" to-port="0" />
		<edge from-layer="2975" from-port="0" to-layer="2976" to-port="0" />
		<edge from-layer="2976" from-port="1" to-layer="2977" to-port="1" />
		<edge from-layer="2977" from-port="2" to-layer="2980" to-port="0" />
		<edge from-layer="2978" from-port="0" to-layer="2979" to-port="0" />
		<edge from-layer="2979" from-port="1" to-layer="2980" to-port="1" />
		<edge from-layer="2980" from-port="2" to-layer="2981" to-port="0" />
		<edge from-layer="2981" from-port="2" to-layer="2984" to-port="0" />
		<edge from-layer="2981" from-port="2" to-layer="2991" to-port="0" />
		<edge from-layer="2981" from-port="2" to-layer="3011" to-port="0" />
		<edge from-layer="2981" from-port="2" to-layer="3021" to-port="0" />
		<edge from-layer="2981" from-port="2" to-layer="3028" to-port="1" />
		<edge from-layer="2981" from-port="2" to-layer="3001" to-port="0" />
		<edge from-layer="2982" from-port="0" to-layer="2983" to-port="0" />
		<edge from-layer="2983" from-port="1" to-layer="2984" to-port="1" />
		<edge from-layer="2984" from-port="2" to-layer="2987" to-port="0" />
		<edge from-layer="2985" from-port="0" to-layer="2986" to-port="0" />
		<edge from-layer="2986" from-port="1" to-layer="2987" to-port="1" />
		<edge from-layer="2987" from-port="2" to-layer="2990" to-port="0" />
		<edge from-layer="2988" from-port="0" to-layer="2989" to-port="0" />
		<edge from-layer="2989" from-port="1" to-layer="2990" to-port="1" />
		<edge from-layer="2990" from-port="2" to-layer="3001" to-port="1" />
		<edge from-layer="2990" from-port="2" to-layer="3021" to-port="1" />
		<edge from-layer="2990" from-port="2" to-layer="3011" to-port="1" />
		<edge from-layer="2990" from-port="2" to-layer="2991" to-port="1" />
		<edge from-layer="2991" from-port="2" to-layer="2994" to-port="0" />
		<edge from-layer="2992" from-port="0" to-layer="2993" to-port="0" />
		<edge from-layer="2993" from-port="1" to-layer="2994" to-port="1" />
		<edge from-layer="2994" from-port="2" to-layer="2997" to-port="0" />
		<edge from-layer="2995" from-port="0" to-layer="2996" to-port="0" />
		<edge from-layer="2996" from-port="1" to-layer="2997" to-port="1" />
		<edge from-layer="2997" from-port="2" to-layer="3000" to-port="0" />
		<edge from-layer="2998" from-port="0" to-layer="2999" to-port="0" />
		<edge from-layer="2999" from-port="1" to-layer="3000" to-port="1" />
		<edge from-layer="3000" from-port="2" to-layer="3001" to-port="2" />
		<edge from-layer="3000" from-port="2" to-layer="3011" to-port="2" />
		<edge from-layer="3000" from-port="2" to-layer="3021" to-port="2" />
		<edge from-layer="3001" from-port="3" to-layer="3004" to-port="0" />
		<edge from-layer="3002" from-port="0" to-layer="3003" to-port="0" />
		<edge from-layer="3003" from-port="1" to-layer="3004" to-port="1" />
		<edge from-layer="3004" from-port="2" to-layer="3007" to-port="0" />
		<edge from-layer="3005" from-port="0" to-layer="3006" to-port="0" />
		<edge from-layer="3006" from-port="1" to-layer="3007" to-port="1" />
		<edge from-layer="3007" from-port="2" to-layer="3010" to-port="0" />
		<edge from-layer="3008" from-port="0" to-layer="3009" to-port="0" />
		<edge from-layer="3009" from-port="1" to-layer="3010" to-port="1" />
		<edge from-layer="3010" from-port="2" to-layer="3021" to-port="3" />
		<edge from-layer="3010" from-port="2" to-layer="3011" to-port="3" />
		<edge from-layer="3011" from-port="4" to-layer="3014" to-port="0" />
		<edge from-layer="3012" from-port="0" to-layer="3013" to-port="0" />
		<edge from-layer="3013" from-port="1" to-layer="3014" to-port="1" />
		<edge from-layer="3014" from-port="2" to-layer="3017" to-port="0" />
		<edge from-layer="3015" from-port="0" to-layer="3016" to-port="0" />
		<edge from-layer="3016" from-port="1" to-layer="3017" to-port="1" />
		<edge from-layer="3017" from-port="2" to-layer="3020" to-port="0" />
		<edge from-layer="3018" from-port="0" to-layer="3019" to-port="0" />
		<edge from-layer="3019" from-port="1" to-layer="3020" to-port="1" />
		<edge from-layer="3020" from-port="2" to-layer="3021" to-port="4" />
		<edge from-layer="3021" from-port="5" to-layer="3024" to-port="0" />
		<edge from-layer="3022" from-port="0" to-layer="3023" to-port="0" />
		<edge from-layer="3023" from-port="1" to-layer="3024" to-port="1" />
		<edge from-layer="3024" from-port="2" to-layer="3027" to-port="0" />
		<edge from-layer="3025" from-port="0" to-layer="3026" to-port="0" />
		<edge from-layer="3026" from-port="1" to-layer="3027" to-port="1" />
		<edge from-layer="3027" from-port="2" to-layer="3028" to-port="0" />
		<edge from-layer="3028" from-port="2" to-layer="3031" to-port="0" />
		<edge from-layer="3028" from-port="2" to-layer="3038" to-port="0" />
		<edge from-layer="3028" from-port="2" to-layer="3048" to-port="0" />
		<edge from-layer="3028" from-port="2" to-layer="3058" to-port="0" />
		<edge from-layer="3028" from-port="2" to-layer="3068" to-port="0" />
		<edge from-layer="3028" from-port="2" to-layer="3075" to-port="1" />
		<edge from-layer="3029" from-port="0" to-layer="3030" to-port="0" />
		<edge from-layer="3030" from-port="1" to-layer="3031" to-port="1" />
		<edge from-layer="3031" from-port="2" to-layer="3034" to-port="0" />
		<edge from-layer="3032" from-port="0" to-layer="3033" to-port="0" />
		<edge from-layer="3033" from-port="1" to-layer="3034" to-port="1" />
		<edge from-layer="3034" from-port="2" to-layer="3037" to-port="0" />
		<edge from-layer="3035" from-port="0" to-layer="3036" to-port="0" />
		<edge from-layer="3036" from-port="1" to-layer="3037" to-port="1" />
		<edge from-layer="3037" from-port="2" to-layer="3038" to-port="1" />
		<edge from-layer="3037" from-port="2" to-layer="3048" to-port="1" />
		<edge from-layer="3037" from-port="2" to-layer="3058" to-port="1" />
		<edge from-layer="3037" from-port="2" to-layer="3068" to-port="1" />
		<edge from-layer="3038" from-port="2" to-layer="3041" to-port="0" />
		<edge from-layer="3039" from-port="0" to-layer="3040" to-port="0" />
		<edge from-layer="3040" from-port="1" to-layer="3041" to-port="1" />
		<edge from-layer="3041" from-port="2" to-layer="3044" to-port="0" />
		<edge from-layer="3042" from-port="0" to-layer="3043" to-port="0" />
		<edge from-layer="3043" from-port="1" to-layer="3044" to-port="1" />
		<edge from-layer="3044" from-port="2" to-layer="3047" to-port="0" />
		<edge from-layer="3045" from-port="0" to-layer="3046" to-port="0" />
		<edge from-layer="3046" from-port="1" to-layer="3047" to-port="1" />
		<edge from-layer="3047" from-port="2" to-layer="3058" to-port="2" />
		<edge from-layer="3047" from-port="2" to-layer="3068" to-port="2" />
		<edge from-layer="3047" from-port="2" to-layer="3048" to-port="2" />
		<edge from-layer="3048" from-port="3" to-layer="3051" to-port="0" />
		<edge from-layer="3049" from-port="0" to-layer="3050" to-port="0" />
		<edge from-layer="3050" from-port="1" to-layer="3051" to-port="1" />
		<edge from-layer="3051" from-port="2" to-layer="3054" to-port="0" />
		<edge from-layer="3052" from-port="0" to-layer="3053" to-port="0" />
		<edge from-layer="3053" from-port="1" to-layer="3054" to-port="1" />
		<edge from-layer="3054" from-port="2" to-layer="3057" to-port="0" />
		<edge from-layer="3055" from-port="0" to-layer="3056" to-port="0" />
		<edge from-layer="3056" from-port="1" to-layer="3057" to-port="1" />
		<edge from-layer="3057" from-port="2" to-layer="3058" to-port="3" />
		<edge from-layer="3057" from-port="2" to-layer="3068" to-port="3" />
		<edge from-layer="3058" from-port="4" to-layer="3061" to-port="0" />
		<edge from-layer="3059" from-port="0" to-layer="3060" to-port="0" />
		<edge from-layer="3060" from-port="1" to-layer="3061" to-port="1" />
		<edge from-layer="3061" from-port="2" to-layer="3064" to-port="0" />
		<edge from-layer="3062" from-port="0" to-layer="3063" to-port="0" />
		<edge from-layer="3063" from-port="1" to-layer="3064" to-port="1" />
		<edge from-layer="3064" from-port="2" to-layer="3067" to-port="0" />
		<edge from-layer="3065" from-port="0" to-layer="3066" to-port="0" />
		<edge from-layer="3066" from-port="1" to-layer="3067" to-port="1" />
		<edge from-layer="3067" from-port="2" to-layer="3068" to-port="4" />
		<edge from-layer="3068" from-port="5" to-layer="3071" to-port="0" />
		<edge from-layer="3069" from-port="0" to-layer="3070" to-port="0" />
		<edge from-layer="3070" from-port="1" to-layer="3071" to-port="1" />
		<edge from-layer="3071" from-port="2" to-layer="3074" to-port="0" />
		<edge from-layer="3072" from-port="0" to-layer="3073" to-port="0" />
		<edge from-layer="3073" from-port="1" to-layer="3074" to-port="1" />
		<edge from-layer="3074" from-port="2" to-layer="3075" to-port="0" />
		<edge from-layer="3075" from-port="2" to-layer="3078" to-port="0" />
		<edge from-layer="3076" from-port="0" to-layer="3077" to-port="0" />
		<edge from-layer="3077" from-port="1" to-layer="3078" to-port="1" />
		<edge from-layer="3078" from-port="2" to-layer="3079" to-port="0" />
		<edge from-layer="3079" from-port="2" to-layer="3082" to-port="0" />
		<edge from-layer="3079" from-port="2" to-layer="3089" to-port="0" />
		<edge from-layer="3079" from-port="2" to-layer="3224" to-port="1" />
		<edge from-layer="3079" from-port="2" to-layer="3099" to-port="0" />
		<edge from-layer="3079" from-port="2" to-layer="3109" to-port="0" />
		<edge from-layer="3079" from-port="2" to-layer="3119" to-port="0" />
		<edge from-layer="3079" from-port="2" to-layer="3126" to-port="1" />
		<edge from-layer="3080" from-port="0" to-layer="3081" to-port="0" />
		<edge from-layer="3081" from-port="1" to-layer="3082" to-port="1" />
		<edge from-layer="3082" from-port="2" to-layer="3085" to-port="0" />
		<edge from-layer="3083" from-port="0" to-layer="3084" to-port="0" />
		<edge from-layer="3084" from-port="1" to-layer="3085" to-port="1" />
		<edge from-layer="3085" from-port="2" to-layer="3088" to-port="0" />
		<edge from-layer="3086" from-port="0" to-layer="3087" to-port="0" />
		<edge from-layer="3087" from-port="1" to-layer="3088" to-port="1" />
		<edge from-layer="3088" from-port="2" to-layer="3089" to-port="1" />
		<edge from-layer="3088" from-port="2" to-layer="3109" to-port="1" />
		<edge from-layer="3088" from-port="2" to-layer="3099" to-port="1" />
		<edge from-layer="3088" from-port="2" to-layer="3119" to-port="1" />
		<edge from-layer="3089" from-port="2" to-layer="3092" to-port="0" />
		<edge from-layer="3090" from-port="0" to-layer="3091" to-port="0" />
		<edge from-layer="3091" from-port="1" to-layer="3092" to-port="1" />
		<edge from-layer="3092" from-port="2" to-layer="3095" to-port="0" />
		<edge from-layer="3093" from-port="0" to-layer="3094" to-port="0" />
		<edge from-layer="3094" from-port="1" to-layer="3095" to-port="1" />
		<edge from-layer="3095" from-port="2" to-layer="3098" to-port="0" />
		<edge from-layer="3096" from-port="0" to-layer="3097" to-port="0" />
		<edge from-layer="3097" from-port="1" to-layer="3098" to-port="1" />
		<edge from-layer="3098" from-port="2" to-layer="3099" to-port="2" />
		<edge from-layer="3098" from-port="2" to-layer="3109" to-port="2" />
		<edge from-layer="3098" from-port="2" to-layer="3119" to-port="2" />
		<edge from-layer="3099" from-port="3" to-layer="3102" to-port="0" />
		<edge from-layer="3100" from-port="0" to-layer="3101" to-port="0" />
		<edge from-layer="3101" from-port="1" to-layer="3102" to-port="1" />
		<edge from-layer="3102" from-port="2" to-layer="3105" to-port="0" />
		<edge from-layer="3103" from-port="0" to-layer="3104" to-port="0" />
		<edge from-layer="3104" from-port="1" to-layer="3105" to-port="1" />
		<edge from-layer="3105" from-port="2" to-layer="3108" to-port="0" />
		<edge from-layer="3106" from-port="0" to-layer="3107" to-port="0" />
		<edge from-layer="3107" from-port="1" to-layer="3108" to-port="1" />
		<edge from-layer="3108" from-port="2" to-layer="3109" to-port="3" />
		<edge from-layer="3108" from-port="2" to-layer="3119" to-port="3" />
		<edge from-layer="3109" from-port="4" to-layer="3112" to-port="0" />
		<edge from-layer="3110" from-port="0" to-layer="3111" to-port="0" />
		<edge from-layer="3111" from-port="1" to-layer="3112" to-port="1" />
		<edge from-layer="3112" from-port="2" to-layer="3115" to-port="0" />
		<edge from-layer="3113" from-port="0" to-layer="3114" to-port="0" />
		<edge from-layer="3114" from-port="1" to-layer="3115" to-port="1" />
		<edge from-layer="3115" from-port="2" to-layer="3118" to-port="0" />
		<edge from-layer="3116" from-port="0" to-layer="3117" to-port="0" />
		<edge from-layer="3117" from-port="1" to-layer="3118" to-port="1" />
		<edge from-layer="3118" from-port="2" to-layer="3119" to-port="4" />
		<edge from-layer="3119" from-port="5" to-layer="3122" to-port="0" />
		<edge from-layer="3120" from-port="0" to-layer="3121" to-port="0" />
		<edge from-layer="3121" from-port="1" to-layer="3122" to-port="1" />
		<edge from-layer="3122" from-port="2" to-layer="3125" to-port="0" />
		<edge from-layer="3123" from-port="0" to-layer="3124" to-port="0" />
		<edge from-layer="3124" from-port="1" to-layer="3125" to-port="1" />
		<edge from-layer="3125" from-port="2" to-layer="3126" to-port="0" />
		<edge from-layer="3126" from-port="2" to-layer="3173" to-port="1" />
		<edge from-layer="3126" from-port="2" to-layer="3129" to-port="0" />
		<edge from-layer="3126" from-port="2" to-layer="3136" to-port="0" />
		<edge from-layer="3126" from-port="2" to-layer="3146" to-port="0" />
		<edge from-layer="3126" from-port="2" to-layer="3156" to-port="0" />
		<edge from-layer="3126" from-port="2" to-layer="3166" to-port="0" />
		<edge from-layer="3127" from-port="0" to-layer="3128" to-port="0" />
		<edge from-layer="3128" from-port="1" to-layer="3129" to-port="1" />
		<edge from-layer="3129" from-port="2" to-layer="3132" to-port="0" />
		<edge from-layer="3130" from-port="0" to-layer="3131" to-port="0" />
		<edge from-layer="3131" from-port="1" to-layer="3132" to-port="1" />
		<edge from-layer="3132" from-port="2" to-layer="3135" to-port="0" />
		<edge from-layer="3133" from-port="0" to-layer="3134" to-port="0" />
		<edge from-layer="3134" from-port="1" to-layer="3135" to-port="1" />
		<edge from-layer="3135" from-port="2" to-layer="3136" to-port="1" />
		<edge from-layer="3135" from-port="2" to-layer="3146" to-port="1" />
		<edge from-layer="3135" from-port="2" to-layer="3156" to-port="1" />
		<edge from-layer="3135" from-port="2" to-layer="3166" to-port="1" />
		<edge from-layer="3136" from-port="2" to-layer="3139" to-port="0" />
		<edge from-layer="3137" from-port="0" to-layer="3138" to-port="0" />
		<edge from-layer="3138" from-port="1" to-layer="3139" to-port="1" />
		<edge from-layer="3139" from-port="2" to-layer="3142" to-port="0" />
		<edge from-layer="3140" from-port="0" to-layer="3141" to-port="0" />
		<edge from-layer="3141" from-port="1" to-layer="3142" to-port="1" />
		<edge from-layer="3142" from-port="2" to-layer="3145" to-port="0" />
		<edge from-layer="3143" from-port="0" to-layer="3144" to-port="0" />
		<edge from-layer="3144" from-port="1" to-layer="3145" to-port="1" />
		<edge from-layer="3145" from-port="2" to-layer="3146" to-port="2" />
		<edge from-layer="3145" from-port="2" to-layer="3156" to-port="2" />
		<edge from-layer="3145" from-port="2" to-layer="3166" to-port="2" />
		<edge from-layer="3146" from-port="3" to-layer="3149" to-port="0" />
		<edge from-layer="3147" from-port="0" to-layer="3148" to-port="0" />
		<edge from-layer="3148" from-port="1" to-layer="3149" to-port="1" />
		<edge from-layer="3149" from-port="2" to-layer="3152" to-port="0" />
		<edge from-layer="3150" from-port="0" to-layer="3151" to-port="0" />
		<edge from-layer="3151" from-port="1" to-layer="3152" to-port="1" />
		<edge from-layer="3152" from-port="2" to-layer="3155" to-port="0" />
		<edge from-layer="3153" from-port="0" to-layer="3154" to-port="0" />
		<edge from-layer="3154" from-port="1" to-layer="3155" to-port="1" />
		<edge from-layer="3155" from-port="2" to-layer="3156" to-port="3" />
		<edge from-layer="3155" from-port="2" to-layer="3166" to-port="3" />
		<edge from-layer="3156" from-port="4" to-layer="3159" to-port="0" />
		<edge from-layer="3157" from-port="0" to-layer="3158" to-port="0" />
		<edge from-layer="3158" from-port="1" to-layer="3159" to-port="1" />
		<edge from-layer="3159" from-port="2" to-layer="3162" to-port="0" />
		<edge from-layer="3160" from-port="0" to-layer="3161" to-port="0" />
		<edge from-layer="3161" from-port="1" to-layer="3162" to-port="1" />
		<edge from-layer="3162" from-port="2" to-layer="3165" to-port="0" />
		<edge from-layer="3163" from-port="0" to-layer="3164" to-port="0" />
		<edge from-layer="3164" from-port="1" to-layer="3165" to-port="1" />
		<edge from-layer="3165" from-port="2" to-layer="3166" to-port="4" />
		<edge from-layer="3166" from-port="5" to-layer="3169" to-port="0" />
		<edge from-layer="3167" from-port="0" to-layer="3168" to-port="0" />
		<edge from-layer="3168" from-port="1" to-layer="3169" to-port="1" />
		<edge from-layer="3169" from-port="2" to-layer="3172" to-port="0" />
		<edge from-layer="3170" from-port="0" to-layer="3171" to-port="0" />
		<edge from-layer="3171" from-port="1" to-layer="3172" to-port="1" />
		<edge from-layer="3172" from-port="2" to-layer="3173" to-port="0" />
		<edge from-layer="3173" from-port="2" to-layer="3176" to-port="0" />
		<edge from-layer="3173" from-port="2" to-layer="3183" to-port="0" />
		<edge from-layer="3173" from-port="2" to-layer="3193" to-port="0" />
		<edge from-layer="3173" from-port="2" to-layer="3203" to-port="0" />
		<edge from-layer="3173" from-port="2" to-layer="3213" to-port="0" />
		<edge from-layer="3173" from-port="2" to-layer="3220" to-port="1" />
		<edge from-layer="3174" from-port="0" to-layer="3175" to-port="0" />
		<edge from-layer="3175" from-port="1" to-layer="3176" to-port="1" />
		<edge from-layer="3176" from-port="2" to-layer="3179" to-port="0" />
		<edge from-layer="3177" from-port="0" to-layer="3178" to-port="0" />
		<edge from-layer="3178" from-port="1" to-layer="3179" to-port="1" />
		<edge from-layer="3179" from-port="2" to-layer="3182" to-port="0" />
		<edge from-layer="3180" from-port="0" to-layer="3181" to-port="0" />
		<edge from-layer="3181" from-port="1" to-layer="3182" to-port="1" />
		<edge from-layer="3182" from-port="2" to-layer="3183" to-port="1" />
		<edge from-layer="3182" from-port="2" to-layer="3193" to-port="1" />
		<edge from-layer="3182" from-port="2" to-layer="3203" to-port="1" />
		<edge from-layer="3182" from-port="2" to-layer="3213" to-port="1" />
		<edge from-layer="3183" from-port="2" to-layer="3186" to-port="0" />
		<edge from-layer="3184" from-port="0" to-layer="3185" to-port="0" />
		<edge from-layer="3185" from-port="1" to-layer="3186" to-port="1" />
		<edge from-layer="3186" from-port="2" to-layer="3189" to-port="0" />
		<edge from-layer="3187" from-port="0" to-layer="3188" to-port="0" />
		<edge from-layer="3188" from-port="1" to-layer="3189" to-port="1" />
		<edge from-layer="3189" from-port="2" to-layer="3192" to-port="0" />
		<edge from-layer="3190" from-port="0" to-layer="3191" to-port="0" />
		<edge from-layer="3191" from-port="1" to-layer="3192" to-port="1" />
		<edge from-layer="3192" from-port="2" to-layer="3203" to-port="2" />
		<edge from-layer="3192" from-port="2" to-layer="3213" to-port="2" />
		<edge from-layer="3192" from-port="2" to-layer="3193" to-port="2" />
		<edge from-layer="3193" from-port="3" to-layer="3196" to-port="0" />
		<edge from-layer="3194" from-port="0" to-layer="3195" to-port="0" />
		<edge from-layer="3195" from-port="1" to-layer="3196" to-port="1" />
		<edge from-layer="3196" from-port="2" to-layer="3199" to-port="0" />
		<edge from-layer="3197" from-port="0" to-layer="3198" to-port="0" />
		<edge from-layer="3198" from-port="1" to-layer="3199" to-port="1" />
		<edge from-layer="3199" from-port="2" to-layer="3202" to-port="0" />
		<edge from-layer="3200" from-port="0" to-layer="3201" to-port="0" />
		<edge from-layer="3201" from-port="1" to-layer="3202" to-port="1" />
		<edge from-layer="3202" from-port="2" to-layer="3203" to-port="3" />
		<edge from-layer="3202" from-port="2" to-layer="3213" to-port="3" />
		<edge from-layer="3203" from-port="4" to-layer="3206" to-port="0" />
		<edge from-layer="3204" from-port="0" to-layer="3205" to-port="0" />
		<edge from-layer="3205" from-port="1" to-layer="3206" to-port="1" />
		<edge from-layer="3206" from-port="2" to-layer="3209" to-port="0" />
		<edge from-layer="3207" from-port="0" to-layer="3208" to-port="0" />
		<edge from-layer="3208" from-port="1" to-layer="3209" to-port="1" />
		<edge from-layer="3209" from-port="2" to-layer="3212" to-port="0" />
		<edge from-layer="3210" from-port="0" to-layer="3211" to-port="0" />
		<edge from-layer="3211" from-port="1" to-layer="3212" to-port="1" />
		<edge from-layer="3212" from-port="2" to-layer="3213" to-port="4" />
		<edge from-layer="3213" from-port="5" to-layer="3216" to-port="0" />
		<edge from-layer="3214" from-port="0" to-layer="3215" to-port="0" />
		<edge from-layer="3215" from-port="1" to-layer="3216" to-port="1" />
		<edge from-layer="3216" from-port="2" to-layer="3219" to-port="0" />
		<edge from-layer="3217" from-port="0" to-layer="3218" to-port="0" />
		<edge from-layer="3218" from-port="1" to-layer="3219" to-port="1" />
		<edge from-layer="3219" from-port="2" to-layer="3220" to-port="0" />
		<edge from-layer="3220" from-port="2" to-layer="3223" to-port="0" />
		<edge from-layer="3221" from-port="0" to-layer="3222" to-port="0" />
		<edge from-layer="3222" from-port="1" to-layer="3223" to-port="1" />
		<edge from-layer="3223" from-port="2" to-layer="3224" to-port="0" />
		<edge from-layer="3224" from-port="2" to-layer="3227" to-port="0" />
		<edge from-layer="3224" from-port="2" to-layer="3234" to-port="0" />
		<edge from-layer="3224" from-port="2" to-layer="3244" to-port="0" />
		<edge from-layer="3224" from-port="2" to-layer="3369" to-port="1" />
		<edge from-layer="3224" from-port="2" to-layer="3254" to-port="0" />
		<edge from-layer="3224" from-port="2" to-layer="3264" to-port="0" />
		<edge from-layer="3224" from-port="2" to-layer="3271" to-port="1" />
		<edge from-layer="3225" from-port="0" to-layer="3226" to-port="0" />
		<edge from-layer="3226" from-port="1" to-layer="3227" to-port="1" />
		<edge from-layer="3227" from-port="2" to-layer="3230" to-port="0" />
		<edge from-layer="3228" from-port="0" to-layer="3229" to-port="0" />
		<edge from-layer="3229" from-port="1" to-layer="3230" to-port="1" />
		<edge from-layer="3230" from-port="2" to-layer="3233" to-port="0" />
		<edge from-layer="3231" from-port="0" to-layer="3232" to-port="0" />
		<edge from-layer="3232" from-port="1" to-layer="3233" to-port="1" />
		<edge from-layer="3233" from-port="2" to-layer="3234" to-port="1" />
		<edge from-layer="3233" from-port="2" to-layer="3244" to-port="1" />
		<edge from-layer="3233" from-port="2" to-layer="3254" to-port="1" />
		<edge from-layer="3233" from-port="2" to-layer="3264" to-port="1" />
		<edge from-layer="3234" from-port="2" to-layer="3237" to-port="0" />
		<edge from-layer="3235" from-port="0" to-layer="3236" to-port="0" />
		<edge from-layer="3236" from-port="1" to-layer="3237" to-port="1" />
		<edge from-layer="3237" from-port="2" to-layer="3240" to-port="0" />
		<edge from-layer="3238" from-port="0" to-layer="3239" to-port="0" />
		<edge from-layer="3239" from-port="1" to-layer="3240" to-port="1" />
		<edge from-layer="3240" from-port="2" to-layer="3243" to-port="0" />
		<edge from-layer="3241" from-port="0" to-layer="3242" to-port="0" />
		<edge from-layer="3242" from-port="1" to-layer="3243" to-port="1" />
		<edge from-layer="3243" from-port="2" to-layer="3254" to-port="2" />
		<edge from-layer="3243" from-port="2" to-layer="3244" to-port="2" />
		<edge from-layer="3243" from-port="2" to-layer="3264" to-port="2" />
		<edge from-layer="3244" from-port="3" to-layer="3247" to-port="0" />
		<edge from-layer="3245" from-port="0" to-layer="3246" to-port="0" />
		<edge from-layer="3246" from-port="1" to-layer="3247" to-port="1" />
		<edge from-layer="3247" from-port="2" to-layer="3250" to-port="0" />
		<edge from-layer="3248" from-port="0" to-layer="3249" to-port="0" />
		<edge from-layer="3249" from-port="1" to-layer="3250" to-port="1" />
		<edge from-layer="3250" from-port="2" to-layer="3253" to-port="0" />
		<edge from-layer="3251" from-port="0" to-layer="3252" to-port="0" />
		<edge from-layer="3252" from-port="1" to-layer="3253" to-port="1" />
		<edge from-layer="3253" from-port="2" to-layer="3254" to-port="3" />
		<edge from-layer="3253" from-port="2" to-layer="3264" to-port="3" />
		<edge from-layer="3254" from-port="4" to-layer="3257" to-port="0" />
		<edge from-layer="3255" from-port="0" to-layer="3256" to-port="0" />
		<edge from-layer="3256" from-port="1" to-layer="3257" to-port="1" />
		<edge from-layer="3257" from-port="2" to-layer="3260" to-port="0" />
		<edge from-layer="3258" from-port="0" to-layer="3259" to-port="0" />
		<edge from-layer="3259" from-port="1" to-layer="3260" to-port="1" />
		<edge from-layer="3260" from-port="2" to-layer="3263" to-port="0" />
		<edge from-layer="3261" from-port="0" to-layer="3262" to-port="0" />
		<edge from-layer="3262" from-port="1" to-layer="3263" to-port="1" />
		<edge from-layer="3263" from-port="2" to-layer="3264" to-port="4" />
		<edge from-layer="3264" from-port="5" to-layer="3267" to-port="0" />
		<edge from-layer="3265" from-port="0" to-layer="3266" to-port="0" />
		<edge from-layer="3266" from-port="1" to-layer="3267" to-port="1" />
		<edge from-layer="3267" from-port="2" to-layer="3270" to-port="0" />
		<edge from-layer="3268" from-port="0" to-layer="3269" to-port="0" />
		<edge from-layer="3269" from-port="1" to-layer="3270" to-port="1" />
		<edge from-layer="3270" from-port="2" to-layer="3271" to-port="0" />
		<edge from-layer="3271" from-port="2" to-layer="3274" to-port="0" />
		<edge from-layer="3271" from-port="2" to-layer="3281" to-port="0" />
		<edge from-layer="3271" from-port="2" to-layer="3311" to-port="0" />
		<edge from-layer="3271" from-port="2" to-layer="3301" to-port="0" />
		<edge from-layer="3271" from-port="2" to-layer="3291" to-port="0" />
		<edge from-layer="3271" from-port="2" to-layer="3318" to-port="1" />
		<edge from-layer="3272" from-port="0" to-layer="3273" to-port="0" />
		<edge from-layer="3273" from-port="1" to-layer="3274" to-port="1" />
		<edge from-layer="3274" from-port="2" to-layer="3277" to-port="0" />
		<edge from-layer="3275" from-port="0" to-layer="3276" to-port="0" />
		<edge from-layer="3276" from-port="1" to-layer="3277" to-port="1" />
		<edge from-layer="3277" from-port="2" to-layer="3280" to-port="0" />
		<edge from-layer="3278" from-port="0" to-layer="3279" to-port="0" />
		<edge from-layer="3279" from-port="1" to-layer="3280" to-port="1" />
		<edge from-layer="3280" from-port="2" to-layer="3281" to-port="1" />
		<edge from-layer="3280" from-port="2" to-layer="3291" to-port="1" />
		<edge from-layer="3280" from-port="2" to-layer="3301" to-port="1" />
		<edge from-layer="3280" from-port="2" to-layer="3311" to-port="1" />
		<edge from-layer="3281" from-port="2" to-layer="3284" to-port="0" />
		<edge from-layer="3282" from-port="0" to-layer="3283" to-port="0" />
		<edge from-layer="3283" from-port="1" to-layer="3284" to-port="1" />
		<edge from-layer="3284" from-port="2" to-layer="3287" to-port="0" />
		<edge from-layer="3285" from-port="0" to-layer="3286" to-port="0" />
		<edge from-layer="3286" from-port="1" to-layer="3287" to-port="1" />
		<edge from-layer="3287" from-port="2" to-layer="3290" to-port="0" />
		<edge from-layer="3288" from-port="0" to-layer="3289" to-port="0" />
		<edge from-layer="3289" from-port="1" to-layer="3290" to-port="1" />
		<edge from-layer="3290" from-port="2" to-layer="3301" to-port="2" />
		<edge from-layer="3290" from-port="2" to-layer="3291" to-port="2" />
		<edge from-layer="3290" from-port="2" to-layer="3311" to-port="2" />
		<edge from-layer="3291" from-port="3" to-layer="3294" to-port="0" />
		<edge from-layer="3292" from-port="0" to-layer="3293" to-port="0" />
		<edge from-layer="3293" from-port="1" to-layer="3294" to-port="1" />
		<edge from-layer="3294" from-port="2" to-layer="3297" to-port="0" />
		<edge from-layer="3295" from-port="0" to-layer="3296" to-port="0" />
		<edge from-layer="3296" from-port="1" to-layer="3297" to-port="1" />
		<edge from-layer="3297" from-port="2" to-layer="3300" to-port="0" />
		<edge from-layer="3298" from-port="0" to-layer="3299" to-port="0" />
		<edge from-layer="3299" from-port="1" to-layer="3300" to-port="1" />
		<edge from-layer="3300" from-port="2" to-layer="3301" to-port="3" />
		<edge from-layer="3300" from-port="2" to-layer="3311" to-port="3" />
		<edge from-layer="3301" from-port="4" to-layer="3304" to-port="0" />
		<edge from-layer="3302" from-port="0" to-layer="3303" to-port="0" />
		<edge from-layer="3303" from-port="1" to-layer="3304" to-port="1" />
		<edge from-layer="3304" from-port="2" to-layer="3307" to-port="0" />
		<edge from-layer="3305" from-port="0" to-layer="3306" to-port="0" />
		<edge from-layer="3306" from-port="1" to-layer="3307" to-port="1" />
		<edge from-layer="3307" from-port="2" to-layer="3310" to-port="0" />
		<edge from-layer="3308" from-port="0" to-layer="3309" to-port="0" />
		<edge from-layer="3309" from-port="1" to-layer="3310" to-port="1" />
		<edge from-layer="3310" from-port="2" to-layer="3311" to-port="4" />
		<edge from-layer="3311" from-port="5" to-layer="3314" to-port="0" />
		<edge from-layer="3312" from-port="0" to-layer="3313" to-port="0" />
		<edge from-layer="3313" from-port="1" to-layer="3314" to-port="1" />
		<edge from-layer="3314" from-port="2" to-layer="3317" to-port="0" />
		<edge from-layer="3315" from-port="0" to-layer="3316" to-port="0" />
		<edge from-layer="3316" from-port="1" to-layer="3317" to-port="1" />
		<edge from-layer="3317" from-port="2" to-layer="3318" to-port="0" />
		<edge from-layer="3318" from-port="2" to-layer="3321" to-port="0" />
		<edge from-layer="3318" from-port="2" to-layer="3338" to-port="0" />
		<edge from-layer="3318" from-port="2" to-layer="3328" to-port="0" />
		<edge from-layer="3318" from-port="2" to-layer="3365" to-port="1" />
		<edge from-layer="3318" from-port="2" to-layer="3358" to-port="0" />
		<edge from-layer="3318" from-port="2" to-layer="3348" to-port="0" />
		<edge from-layer="3319" from-port="0" to-layer="3320" to-port="0" />
		<edge from-layer="3320" from-port="1" to-layer="3321" to-port="1" />
		<edge from-layer="3321" from-port="2" to-layer="3324" to-port="0" />
		<edge from-layer="3322" from-port="0" to-layer="3323" to-port="0" />
		<edge from-layer="3323" from-port="1" to-layer="3324" to-port="1" />
		<edge from-layer="3324" from-port="2" to-layer="3327" to-port="0" />
		<edge from-layer="3325" from-port="0" to-layer="3326" to-port="0" />
		<edge from-layer="3326" from-port="1" to-layer="3327" to-port="1" />
		<edge from-layer="3327" from-port="2" to-layer="3328" to-port="1" />
		<edge from-layer="3327" from-port="2" to-layer="3358" to-port="1" />
		<edge from-layer="3327" from-port="2" to-layer="3348" to-port="1" />
		<edge from-layer="3327" from-port="2" to-layer="3338" to-port="1" />
		<edge from-layer="3328" from-port="2" to-layer="3331" to-port="0" />
		<edge from-layer="3329" from-port="0" to-layer="3330" to-port="0" />
		<edge from-layer="3330" from-port="1" to-layer="3331" to-port="1" />
		<edge from-layer="3331" from-port="2" to-layer="3334" to-port="0" />
		<edge from-layer="3332" from-port="0" to-layer="3333" to-port="0" />
		<edge from-layer="3333" from-port="1" to-layer="3334" to-port="1" />
		<edge from-layer="3334" from-port="2" to-layer="3337" to-port="0" />
		<edge from-layer="3335" from-port="0" to-layer="3336" to-port="0" />
		<edge from-layer="3336" from-port="1" to-layer="3337" to-port="1" />
		<edge from-layer="3337" from-port="2" to-layer="3338" to-port="2" />
		<edge from-layer="3337" from-port="2" to-layer="3348" to-port="2" />
		<edge from-layer="3337" from-port="2" to-layer="3358" to-port="2" />
		<edge from-layer="3338" from-port="3" to-layer="3341" to-port="0" />
		<edge from-layer="3339" from-port="0" to-layer="3340" to-port="0" />
		<edge from-layer="3340" from-port="1" to-layer="3341" to-port="1" />
		<edge from-layer="3341" from-port="2" to-layer="3344" to-port="0" />
		<edge from-layer="3342" from-port="0" to-layer="3343" to-port="0" />
		<edge from-layer="3343" from-port="1" to-layer="3344" to-port="1" />
		<edge from-layer="3344" from-port="2" to-layer="3347" to-port="0" />
		<edge from-layer="3345" from-port="0" to-layer="3346" to-port="0" />
		<edge from-layer="3346" from-port="1" to-layer="3347" to-port="1" />
		<edge from-layer="3347" from-port="2" to-layer="3348" to-port="3" />
		<edge from-layer="3347" from-port="2" to-layer="3358" to-port="3" />
		<edge from-layer="3348" from-port="4" to-layer="3351" to-port="0" />
		<edge from-layer="3349" from-port="0" to-layer="3350" to-port="0" />
		<edge from-layer="3350" from-port="1" to-layer="3351" to-port="1" />
		<edge from-layer="3351" from-port="2" to-layer="3354" to-port="0" />
		<edge from-layer="3352" from-port="0" to-layer="3353" to-port="0" />
		<edge from-layer="3353" from-port="1" to-layer="3354" to-port="1" />
		<edge from-layer="3354" from-port="2" to-layer="3357" to-port="0" />
		<edge from-layer="3355" from-port="0" to-layer="3356" to-port="0" />
		<edge from-layer="3356" from-port="1" to-layer="3357" to-port="1" />
		<edge from-layer="3357" from-port="2" to-layer="3358" to-port="4" />
		<edge from-layer="3358" from-port="5" to-layer="3361" to-port="0" />
		<edge from-layer="3359" from-port="0" to-layer="3360" to-port="0" />
		<edge from-layer="3360" from-port="1" to-layer="3361" to-port="1" />
		<edge from-layer="3361" from-port="2" to-layer="3364" to-port="0" />
		<edge from-layer="3362" from-port="0" to-layer="3363" to-port="0" />
		<edge from-layer="3363" from-port="1" to-layer="3364" to-port="1" />
		<edge from-layer="3364" from-port="2" to-layer="3365" to-port="0" />
		<edge from-layer="3365" from-port="2" to-layer="3368" to-port="0" />
		<edge from-layer="3366" from-port="0" to-layer="3367" to-port="0" />
		<edge from-layer="3367" from-port="1" to-layer="3368" to-port="1" />
		<edge from-layer="3368" from-port="2" to-layer="3369" to-port="0" />
		<edge from-layer="3369" from-port="2" to-layer="3372" to-port="0" />
		<edge from-layer="3370" from-port="0" to-layer="3371" to-port="0" />
		<edge from-layer="3371" from-port="1" to-layer="3372" to-port="1" />
		<edge from-layer="3372" from-port="2" to-layer="3375" to-port="0" />
		<edge from-layer="3373" from-port="0" to-layer="3374" to-port="0" />
		<edge from-layer="3374" from-port="1" to-layer="3375" to-port="1" />
		<edge from-layer="3375" from-port="2" to-layer="3376" to-port="1" />
		<edge from-layer="3376" from-port="2" to-layer="3378" to-port="0" />
		<edge from-layer="3377" from-port="0" to-layer="3378" to-port="1" />
		<edge from-layer="3378" from-port="2" to-layer="3381" to-port="0" />
		<edge from-layer="3379" from-port="0" to-layer="3380" to-port="0" />
		<edge from-layer="3380" from-port="1" to-layer="3381" to-port="1" />
		<edge from-layer="3381" from-port="2" to-layer="3384" to-port="0" />
		<edge from-layer="3382" from-port="0" to-layer="3383" to-port="0" />
		<edge from-layer="3383" from-port="1" to-layer="3384" to-port="1" />
		<edge from-layer="3384" from-port="2" to-layer="3387" to-port="0" />
		<edge from-layer="3385" from-port="0" to-layer="3386" to-port="0" />
		<edge from-layer="3386" from-port="1" to-layer="3387" to-port="1" />
		<edge from-layer="3387" from-port="2" to-layer="3389" to-port="0" />
		<edge from-layer="3388" from-port="0" to-layer="3389" to-port="1" />
		<edge from-layer="3389" from-port="2" to-layer="3392" to-port="0" />
		<edge from-layer="3390" from-port="0" to-layer="3391" to-port="0" />
		<edge from-layer="3391" from-port="1" to-layer="3392" to-port="1" />
		<edge from-layer="3392" from-port="2" to-layer="3395" to-port="0" />
		<edge from-layer="3393" from-port="0" to-layer="3394" to-port="0" />
		<edge from-layer="3394" from-port="1" to-layer="3395" to-port="1" />
		<edge from-layer="3395" from-port="2" to-layer="3398" to-port="0" />
		<edge from-layer="3396" from-port="0" to-layer="3397" to-port="0" />
		<edge from-layer="3397" from-port="1" to-layer="3398" to-port="1" />
		<edge from-layer="3398" from-port="2" to-layer="3401" to-port="0" />
		<edge from-layer="3399" from-port="0" to-layer="3400" to-port="0" />
		<edge from-layer="3400" from-port="1" to-layer="3401" to-port="1" />
		<edge from-layer="3401" from-port="2" to-layer="3404" to-port="0" />
		<edge from-layer="3402" from-port="0" to-layer="3403" to-port="0" />
		<edge from-layer="3403" from-port="1" to-layer="3404" to-port="1" />
		<edge from-layer="3404" from-port="2" to-layer="3407" to-port="0" />
		<edge from-layer="3405" from-port="0" to-layer="3406" to-port="0" />
		<edge from-layer="3406" from-port="1" to-layer="3407" to-port="1" />
		<edge from-layer="3407" from-port="2" to-layer="3410" to-port="0" />
		<edge from-layer="3408" from-port="0" to-layer="3409" to-port="0" />
		<edge from-layer="3409" from-port="1" to-layer="3410" to-port="1" />
		<edge from-layer="3410" from-port="2" to-layer="3413" to-port="0" />
		<edge from-layer="3411" from-port="0" to-layer="3412" to-port="0" />
		<edge from-layer="3412" from-port="1" to-layer="3413" to-port="1" />
		<edge from-layer="3413" from-port="2" to-layer="3414" to-port="0" />
	</edges>
	<rt_info>
		<Runtime_version value="2024.6.0-17404-4c0f47d2335-releases/2024/6" />
		<conversion_parameters>
			<input_model value="DIR\temp_scale_2.onnx" />
			<is_python_object value="False" />
		</conversion_parameters>
	</rt_info>
</net>
